LeNet5/LeNet5.tflite (tflite, 248044 bytes, 10 tensors)

sequential_5/conv2d_10/BiasAdd/ReadVariableOp f4 [6]
000000 1f 23 c7 bd 47 f9 c2 3c 97 47 46 3e fa ec 5c 3d
       -0.09723496 0.023800505 0.19363247 0.053936936
000010 46 fe 94 3d 77 77 63 3c
       0.07275061 0.013883463

sequential_5/conv2d_11/BiasAdd/ReadVariableOp f4 [16]
000000 58 79 bb bc f4 39 2a bd 55 64 8a bd 2f a6 de bc
       -0.02288501 -0.041559175 -0.06757418 -0.027178852
000010 59 fe be 3d f5 9e 0f bd fe 75 01 3d 32 14 96 3a
       0.09325857 -0.035063703 0.031606667 0.001145011
000020 ec 26 14 3d 5a 91 18 3d 76 a2 89 bc 29 be 77 bc
       0.03616993 0.037247993 -0.0168011 -0.015121021
000030 e0 53 31 3b 14 da b1 bb bb a8 03 3b 1b b4 c2 bd
       0.002705805 -0.0054276083 0.0020089585 -0.09507009

sequential_5/conv2d_10/Conv2D f4 [6, 5, 5, 1]
000000 97 cd 53 be 66 91 39 be 3c 55 50 bc 18 fa 1c bd
       -0.20683895 -0.18121871 -0.012715634 -0.038324445
000010 07 ca 97 bd d2 d5 53 3d f7 66 0c be a6 bb c0 3d
       -0.074115805 0.051717587 -0.13711153 0.09410791
000020 1f 29 85 3d 16 c9 db 3d 9f 58 cf 3d 3c b5 05 3e
       0.06501984 0.107317135 0.10124325 0.13057417
000030 52 fa a5 3d 43 b8 9a bd 9d 8b 1d be e2 56 aa bd
       0.081043854 -0.075546764 -0.1538529 -0.08317353
000040 7d f3 19 3d fe 32 9f 3d a0 2e 86 3d 9e 57 1c 3e
       0.037585724 0.07773398 0.06551862 0.15267798
000050 df 06 2c 3e 1d 07 20 3d d4 dc 04 bd 95 83 43 3e
       0.16799496 0.039069284 -0.03243716 0.19093163
000060 a6 49 99 3d fb 76 6e 3e 16 f7 36 3e e7 86 05 3e
       0.074847504 0.23287575 0.17867693 0.13039742
000070 c7 fe fc 3d 90 6e d6 bc 73 cf b6 3b e0 30 13 3e
       0.123532824 -0.026175767 0.005578929 0.14374113
000080 a5 2a fe 3c 9d b1 09 3e a4 fb 4c 3d 7d 0f 06 be
       0.031026194 0.1344666 0.05004467 -0.13091846
000090 6c ff 81 bd e0 6e df bd 85 01 d1 bd e7 3c 49 3d
       -0.06347546 -0.109098196 -0.10205368 0.049130347
0000a0 b9 98 18 be 93 6f a3 bd 2c 94 08 be 2f ed 2a be
       -0.14902009 -0.079802655 -0.13337773 -0.16692041
0000b0 ce 3f 22 bd 22 65 ea bd aa cc 92 bd 2b 0f ec 3c
       -0.03961163 -0.11445071 -0.07167943 0.028815826
0000c0 c3 7b f6 bd a4 22 98 3d 2b 12 fb bd d8 45 23 3c
       -0.120353244 0.07428482 -0.12259325 0.0099653825
0000d0 bd 22 f4 3d 0d db 0d 3d 38 9f e3 bd ca ad 22 be
       0.11920688 0.03463273 -0.11114353 -0.15886608
0000e0 5e a6 32 be 79 94 44 be 42 f6 fe bd d5 c5 3d 3e
       -0.17446277 -0.19197263 -0.12449314 0.18532498
0000f0 a0 a9 80 3c f1 c9 46 be e7 53 81 bd ff 32 41 be
       0.015705884 -0.19412972 -0.06314831 -0.1886711
000100 a4 f6 aa bc bc a0 02 be 62 71 b4 bd 3a fc 36 3e
       -0.02086956 -0.12756628 -0.088106886 0.17869654
000110 10 a7 9d 3d 69 8a de bb 48 7e 34 bd 10 c3 8e 3d
       0.0769788 -0.006791402 -0.044065744 0.06970799
000120 db c9 f3 3c 9f 35 5e bd 21 14 54 3e 0c 27 20 bb
       0.029759338 -0.054250356 0.20710804 -0.0024437336
000130 59 76 6a 3e d6 af 57 3e c7 86 fd 3d 9a dd 07 be
       0.22896709 0.2106317 0.12379222 -0.13268128
000140 6e 9a 87 bd fd 5e 8e bd f9 71 f6 bd af 3a 76 be
       -0.06621252 -0.06951711 -0.12033457 -0.24045824
000150 64 0a 94 be 85 ac 16 3e 6c 02 bd 3d 83 6f 17 bc
       -0.28914177 0.14714248 0.092289776 -0.009242895
000160 83 68 45 be fa d7 94 be 4c 39 71 3d 08 f6 45 3e
       -0.1927815 -0.29071027 0.058892533 0.19332135
000170 4c 81 43 3e 7e 7b 3f be d0 3e 31 be a5 69 4b 3c
       0.19092292 -0.18699452 -0.17309117 0.012415324
000180 48 e2 44 3e 5f 8f 08 be 69 99 37 3e 37 30 24 3e
       0.19226944 -0.13335942 0.17929615 0.16034018
000190 a2 df 31 be 5e e0 94 3d 3a ed 2f bd 25 e0 23 3e
       -0.17370465 0.07269357 -0.042950846 0.16003473
0001a0 f8 50 ed 3c 5c ef 3e be 95 22 90 bd fe 1d 29 3e
       0.028969273 -0.18645996 -0.07037846 0.16515347
0001b0 c9 b4 57 3e 0f 20 a7 3c f4 de 79 be b7 d0 1c be
       0.21065058 0.020401029 -0.24401456 -0.15313993
0001c0 91 87 d4 3d c0 73 7b bc ba 33 a3 bb fb 23 cb bc
       0.1037742 -0.015347421 -0.0049805315 -0.02479743
0001d0 f1 af b9 3d be 69 c9 3d 08 50 1b 3d 13 5b b8 3b
       0.09066761 0.09834622 0.03791812 0.0056260913
0001e0 48 ed 2a bd b3 12 89 bd f8 f0 fe bd 3d 28 f1 3d
       -0.041730195 -0.0669302 -0.12448305 0.11775253
0001f0 04 37 6c bd a8 e6 0c be 84 cf 15 bd bd 04 13 bd
       -0.057669654 -0.13759863 -0.036574855 -0.03589319
000200 96 3a 51 bd d0 4d 12 be 61 c0 22 3c 30 0a ee bc
       -0.051081263 -0.14287496 0.009933562 -0.029057592
000210 a6 f0 cb bb f1 84 53 be f9 23 24 be 36 dc 10 be
       -0.006223756 -0.20656182 -0.16029347 -0.14146504
000220 77 c6 1b 3e e8 20 53 3c 0f 5f f1 bd fa f8 ff 3c
       0.15212427 0.012886263 -0.11785709 0.031246651
000230 9c 97 67 3d 22 8c 4f 3e af 9a e0 3d 46 39 a0 bc
       0.05654107 0.202683 0.109670036 -0.01955856
000240 ad 50 1c bd ba 98 c5 3d f4 d4 43 3e 21 82 4a 3e
       -0.038162876 0.09648271 0.19124204 0.19776203
000250 e8 86 87 3d ff 92 a0 3c
       0.06617528 0.019601343

sequential_5/conv2d_11/Conv2D f4 [16, 5, 5, 6]
000000 9c 9f 86 bd 00 ac 49 3d bc ca 4e 3e f4 fb f6 3d
       -0.06573412 0.049236298 0.20194525 0.12059775
000010 40 c2 01 be d9 a7 99 3d 2d 51 07 be 83 9c 11 be
       -0.12671757 0.075027175 -0.1321456 -0.1421986
000020 6e ae d4 3d 6c a5 3b bd ac 2e b2 bc 45 d4 93 3d
       0.10384832 -0.045812055 -0.02175077 0.072182216
000030 f9 dd 06 be c0 1a b4 bd d3 3f 00 3e 15 64 18 bd
       -0.13170613 -0.08794165 0.12524347 -0.03720482
000040 2b 8d 0a be 38 f1 a1 3d 04 45 b4 bd 8e dd 0c 3d
       -0.13530414 0.07907337 -0.08802226 0.03439098
000050 65 55 2e 3e 30 94 a1 bd 09 0f c1 3d 78 58 1f bd
       0.17024763 -0.07889593 0.09426696 -0.03890273
000060 3f c5 f6 bd f7 8d 9c bd 3a aa 26 3e f3 9b ab 3d
       -0.120493405 -0.07644265 0.16275874 0.08379354
000070 48 3c 4d 3d 2a bb 9c 3d 5c db 54 3d e3 55 e0 bd
       0.050106317 0.07652886 0.05196701 -0.109538816
000080 9e fe aa 3d e0 c2 ed 3d 4e 9e b8 bd ca 67 bd 3d
       0.083493456 0.11609435 -0.09014569 0.09248312
000090 8d 44 67 3d d5 1c 5a be 5d 7d 33 3e 06 69 2a 3d
       0.05646186 -0.21300061 0.17528291 0.041604064
0000a0 54 fe fa bd 99 7d ae 3d b1 c3 ee bd 2a 4a 80 be
       -0.122555405 0.085200496 -0.11658419 -0.25056583
0000b0 49 4b ea 3d f2 1f fa 3d 7e c3 90 bd 0a 24 0f 3e
       0.11440141 0.12213124 -0.07068537 0.13978592
0000c0 d9 6c 7c bc e9 a5 83 be 15 65 0e 3e 09 08 fe 3d
       -0.015406811 -0.25712517 0.13905747 0.12403876
0000d0 31 9d d9 bc d1 4d 85 3d bd 17 cb 3d e8 2f 36 be
       -0.026564213 0.06508983 0.09916637 -0.17791712
0000e0 92 3f 83 3e df 4c dc 3d 26 2d 23 bd bb 53 1c bd
       0.25634438 0.107568495 -0.03983798 -0.03816579
0000f0 bb 30 b6 bc 37 f0 08 bd b2 92 ee 3d 86 c7 f7 3c
       -0.022240033 -0.03343221 0.11649074 0.030246507
000100 03 f7 69 bd c3 0f 97 bd c3 53 e6 bd fc a2 cd 3d
       -0.057120334 -0.07376053 -0.11246445 0.100408524
000110 bf c5 b8 bd 73 42 bf ba cc c3 56 bd 8c 8c 3d 3d
       -0.09022092 -0.0014591947 -0.05243282 0.046276614
000120 47 75 c7 3c 3a 17 49 3d a6 8b 33 be 7c e5 8c bd
       0.024347914 0.049094416 -0.1753374 -0.06879708
000130 c8 bc 85 bd eb f0 c3 bd 93 b8 8a 3d 66 f7 9c bd
       -0.06530148 -0.09567436 0.06773486 -0.07664375
000140 24 14 02 3d 63 dc 97 bd 57 f5 53 bd 36 70 c3 bd
       0.03175749 -0.07415082 -0.051747646 -0.09542887
000150 98 e2 61 bc ec e6 0d b9 2e 0e 87 3d cc b3 dd bd
       -0.013786934 -0.00013532833 0.065945014 -0.10825309
000160 99 a0 b3 3d 59 d9 8f bd 07 e5 13 3d 50 b1 63 3c
       0.08770866 -0.07023878 0.03610709 0.013897255
000170 57 e2 33 bc 23 1e 09 3d 19 07 88 3d 18 10 80 3d
       -0.010979257 0.033476006 0.06641979 0.0625307
000180 f4 bd ad ba b8 b0 18 bb 02 39 ee bd 03 a9 ba 3d
       -0.0013255463 -0.0023298692 -0.11631967 0.09114268
000190 5b 16 e6 3d 51 58 60 bd d7 16 24 bc 71 9a ba 3d
       0.11234733 -0.054771725 -0.010015211 0.091114886
0001a0 97 39 b3 bd d4 97 84 3d 25 4c 4b 3d 48 1f ae 3c
       -0.08751219 0.064742714 0.049633164 0.02125515
0001b0 5f ab ac bd bd 24 ed 3d 1f 53 6a be ec a8 36 3d
       -0.08431124 0.11579273 -0.2288327 0.04459469
0001c0 49 3c a7 3d c5 06 d8 bd 28 32 b5 3d 5c 3e b7 3d
       0.08165795 -0.10548166 0.08847457 0.08947441
0001d0 97 2e 11 be 1f 35 ad 3c e4 dd 70 3c 1c 4d ed bd
       -0.14177929 0.021143494 0.01470134 -0.11586973
0001e0 05 7b 4b bd b7 21 73 bd b6 9c 23 bd 58 18 f3 bd
       -0.049677867 -0.059358325 -0.039944373 -0.118698776
0001f0 c4 a0 a0 3c 10 8a ae 3d a6 19 d3 bb 4b 38 96 bc
       0.019607909 0.08522427 -0.0064422665 -0.01833739
000200 88 97 51 be 90 bd 33 bd 49 a5 98 bd 5f c7 0d 3d
       -0.20467961 -0.043881953 -0.07453401 0.034613963
000210 d5 c6 01 3d ca cf 96 3d e2 df 3c be 01 bf 5d be
       0.03168376 0.07363851 -0.1844478 -0.21654893
000220 06 a2 38 3d b6 89 e8 3d 5a 00 a5 3a a3 d0 b9 3c
       0.045076393 0.11354391 0.0012588606 0.022682494
000230 a7 0f ff bc 00 69 74 be c5 cc 50 3d 11 7f cd 3d
       -0.031135393 -0.2386818 0.050976533 0.100340016
000240 90 54 c4 3d 3c b3 59 3b ce e5 7b be e8 a5 52 be
       0.095864415 0.0033218404 -0.24599382 -0.205711
000250 68 4b 1c bd da 1e aa 3d 1f 91 f7 bc 63 29 89 3d
       -0.03815785 0.08306666 -0.030220566 0.06697347
000260 5b 0a fb 3c a3 39 4f 3e ad a1 24 3d 85 85 df 3d
       0.030644586 0.2023683 0.04019325 0.10914139
000270 7c 71 b2 bd 79 b8 06 3e 1c 60 ee 3d 7a be 0b be
       -0.08713052 0.13156308 0.11639425 -0.1364688
000280 fd 93 c7 3e fe 6f 86 bd 48 b1 cb 3d ad 0d 8d bc
       0.38980094 -0.065643296 0.09945923 -0.017218435
000290 e2 65 a8 bd 40 92 06 bd d4 c9 87 3e 8a fe d8 bd
       -0.082225576 -0.03285432 0.2652117 -0.105954245
0002a0 5e bc 67 3d ce ec 0b bd 85 c5 54 be 32 44 18 3e
       0.056576125 -0.03416138 -0.20778473 0.14869764
0002b0 26 3c a5 3c 7c 4b fd 3d 16 a0 90 3a 1b ed c7 bb
       0.020170283 0.12367913 0.0011034037 -0.006101263
0002c0 fe c6 a8 be 6a b9 83 3e 84 71 2e be 75 88 91 3d
       -0.3296432 0.25727397 -0.1703549 0.07106105
0002d0 c8 a0 b7 bd 88 f4 8f be db d6 35 3e 43 51 26 3e
       -0.089662135 -0.2811625 0.17757742 0.16241936
0002e0 64 aa a1 3c 7a 66 fd 3d fa fb 98 bd 52 1b 96 bd
       0.019734569 0.123730615 -0.07469936 -0.0732943
0002f0 08 fb 91 3e 97 a2 82 be aa 76 bc 3e 18 34 8b be
       0.28511834 -0.2551467 0.36809283 -0.27188182
000300 9e 55 88 3d 53 ca 92 bd 77 f7 4a 3e c8 d1 32 be
       0.06656955 -0.071674965 0.19820963 -0.17462838
000310 65 ca 9f 3e 89 3a 86 be 06 c2 bd 3d 34 9c d6 bd
       0.31209102 -0.26216534 0.09265523 -0.10479012
000320 8f ef a2 bd 7a ab 42 3e 03 1f c3 3d dc 6d 6e bd
       -0.079558484 0.19010726 0.095273994 -0.05821024
000330 d5 f0 b0 3b d3 0a f9 bd 29 a0 7d be 4b 82 1e 3e
       0.005399803 -0.12160268 -0.24768128 0.1547939
000340 13 c7 de bd 15 37 16 3d 1c 87 c1 bd 2b 1c 67 be
       -0.10877814 0.036673624 -0.09449598 -0.22569339
000350 c6 19 8d 3d 40 d4 c7 3e a0 07 ce be 5e 57 5d 3e
       0.068896815 0.3902912 -0.40240192 0.21615359
000360 71 f2 66 3d 49 ef 2c be 70 8a b3 3e 42 68 31 bb
       0.056383554 -0.16888155 0.35066557 -0.00270702
000370 a2 a7 e8 3d c5 59 fe 3c cd 26 0b 3c 9d 95 8e bc
       0.113600984 0.031048665 0.008493138 -0.017405326
000380 b3 fa 42 3e 84 1d 34 be 46 d8 8f 3e 51 cb ef bd
       0.19040947 -0.17589384 0.2809469 -0.117087014
000390 df 7c 10 be 42 71 8e bd f4 9d 17 be 2e 07 8f be
       -0.14110135 -0.06955196 -0.14806348 -0.27935165
0003a0 ee 48 5f 3e de e1 8d be 5f 9a 89 3b 9e 36 87 bd
       0.21805164 -0.27711385 0.0041993107 -0.06602214
0003b0 52 69 93 be 40 fe 4d bd b7 a1 e1 bd d6 18 84 bd
       -0.2879129 -0.0502913 -0.11017173 -0.064500496
0003c0 84 31 46 ba d3 5a 0d be b0 84 79 3d a8 9e ee 3d
       -0.0007560479 -0.13804178 0.060917556 0.11651355
0003d0 dd 37 ba be f2 75 99 3d 43 9e e7 3d 3a 30 14 bd
       -0.36370745 0.074931994 0.11309483 -0.036178805
0003e0 68 76 51 3e 52 a5 07 3e da eb 56 be d0 23 2b 3e
       0.20455325 0.13246658 -0.20988408 0.1671288
0003f0 d1 e1 11 bd 26 8d 17 bd 2b 76 d6 bd ad 5d f7 3d
       -0.035615746 -0.036999844 -0.104717575 0.12078414

sequential_5/dense_17/BiasAdd/ReadVariableOp f4 [2]
000000 80 29 47 bc f6 29 47 3c
       -0.01215589 0.012156

sequential_5/dense_16/BiasAdd/ReadVariableOp f4 [84]
000000 cc 47 d0 3d a7 55 d0 3c ec 00 83 3d 15 dd 48 3d
       0.10169944 0.025431467 0.0639666 0.049038965
000010 75 9d c2 bd a6 c4 da 3d 8a 09 70 3a 93 de 51 3d
       -0.09502689 0.10682039 0.0009156695 0.051237654
000020 16 62 6a 3d 58 07 83 3c 49 59 5e 3d 99 1f 0e 3d
       0.05722245 0.015994713 0.054284368 0.034698103
000030 fd 4f 91 3d 21 17 95 3d 06 52 84 3d fa 82 53 3d
       0.07095335 0.07279802 0.06460957 0.05163858
000040 04 e4 ee 3d 98 0b 51 3d 02 f2 b8 bc 7c e9 a7 3d
       0.11664584 0.051036447 -0.022576336 0.081988305
000050 5a 3d 7d 3d a7 8d ba 3d 88 90 d4 3d 6b be de 3d
       0.061826088 0.09109049 0.1037913 0.10876163
000060 da 17 a1 3d 4b c8 2c 3d 25 ae 90 3d 24 5c 3e 3d
       0.078658774 0.0421832 0.070644654 0.04647459
000070 a1 29 c8 3d b4 82 b4 3d 72 a5 b4 3d 57 91 9f 3d
       0.09773565 0.08813992 0.08820619 0.07791393
000080 f8 e4 b7 3d 1f 82 83 3d dd be 0c 3d 7c 6a b4 3d
       0.08979219 0.06421303 0.03436171 0.08809373
000090 14 41 da 3c c5 59 94 3d 0f 86 ce 3d 7c ef a7 3d
       0.02664236 0.07243685 0.100841634 0.08199975
0000a0 90 2f 2e 3d 1b a2 b9 3d 52 82 46 3d 38 a9 ce 3d
       0.042525828 0.09064122 0.048464127 0.1009087
0000b0 ae 74 4a 3d 1d a4 96 3d 86 c6 10 3d 2e 72 d1 3c
       0.04942768 0.07355521 0.035345577 0.02556714
0000c0 bd 81 c1 3c 48 00 74 3d 0b 36 42 ba 24 76 d5 3d
       0.023621434 0.05957058 -0.0007408566 0.10422924
0000d0 20 b6 4c 3d 13 6b 00 3b 59 4a d0 3d b4 fe bd 3d
       0.049978375 0.0019595071 0.10170431 0.092770964
0000e0 70 56 74 bc 56 0e 7f 3d 63 9f 6d 3d 83 ae 82 3d
       -0.014913186 0.06226953 0.05801333 0.06380942
0000f0 5b 7a c8 3d f6 b1 06 bd 8f a1 46 3d 88 d7 33 3d
       0.097889625 -0.03288456 0.048493918 0.04390672
000100 1d a5 39 3d 0f 9d c3 3d 69 eb 3e 3d 42 28 15 3e
       0.04532348 0.09551441 0.046611223 0.14566138
000110 c4 12 69 3d 33 e5 97 3d 50 d7 43 3d df 75 15 3d
       0.056902662 0.07416763 0.04781276 0.036489364
000120 87 1c 92 3d da a0 d4 3d 9e 60 44 3d 89 55 7b 3d
       0.071343474 0.103822425 0.047943704 0.06136087
000130 cf 1a 3c 3c 68 02 a3 3d fc 26 c0 3d 05 6f d8 3d
       0.011481001 0.07959443 0.09382436 0.1056805
000140 8a 42 2c 3d ff 22 6d 3d 15 b5 68 3d 8c 8c 16 3d
       0.042055644 0.057894703 0.05681332 0.03675513

sequential_5/dense_15/BiasAdd/ReadVariableOp f4 [120]
000000 70 01 ac bc fc 2d 3e bc c9 3c e2 bc 35 74 bc bd
       -0.02099678 -0.011607643 -0.027616875 -0.09201852
000010 d8 1c 5a bc de d4 68 ba 22 1f d5 bc 7a a6 87 bc
       -0.013312541 -0.00088818173 -0.026015822 -0.016558874
000020 f3 3d 05 bd 45 e2 ce bc f9 2e e5 3c 8c cc 94 3d
       -0.032529783 -0.025254378 0.0279765 0.07265577
000030 47 01 98 3d a5 52 e7 bc 05 ef 83 3d d0 0f f3 bc
       0.07422119 -0.02823765 0.06442074 -0.029670626
000040 07 fd 5e bd f5 5a 91 bb 25 20 85 bc 6b 2b aa 3d
       -0.054440524 -0.0044358918 -0.01625068 0.083090626
000050 b6 f2 b1 3c 11 9d a3 bd dc 7d f8 3d 71 9a 4e bc
       0.021722179 -0.079889424 0.12133381 -0.012610064
000060 5c f0 22 3d b1 b7 eb 3c 4a 74 96 3d c3 16 a7 bd
       0.039780006 0.028774114 0.07346399 -0.08158638
000070 af b5 a6 3d 8e 1c 10 bd 83 77 bd bd cb 56 43 bc
       0.08140122 -0.035183482 -0.09251311 -0.0119225485
000080 f1 e8 d0 bc a0 7f 8a 3d fb 1f 9c bd 9f 54 01 3d
       -0.0255017 0.06762624 -0.07623287 0.03157484
000090 03 83 74 3c b7 71 23 3d 85 71 0e 3d d0 5a de 3c
       0.014923814 0.03990337 0.03477623 0.027142912
0000a0 cc e0 28 3d f6 d4 85 bc 10 33 1b bd e4 76 05 3a
       0.041230008 -0.0163369 -0.037890494 0.00050912634
0000b0 50 68 7e 3c 20 47 e1 bc dc f3 93 bc 61 5a 62 3b
       0.0155278 -0.027499735 -0.018060617 0.0034538733
0000c0 dc a6 02 3d ab 7a a2 3d 23 61 fc bc 0a 88 50 bc
       0.03189741 0.07933553 -0.030808037 -0.012727747
0000d0 d1 f6 6a 3d 57 07 ad bc 6b 6f 14 3d 44 c0 2e 3c
       0.05736429 -0.021121664 0.03623907 0.010665957
0000e0 7b ac 1c 3d 0a a0 a8 bd 72 64 af bd 00 b1 b2 bc
       0.038250428 -0.0823365 -0.0856408 -0.021812916
0000f0 1d 06 d1 3b 99 5a b4 bc 05 47 53 3d 7a 7e 01 3e
       0.0063789026 -0.022015857 0.0515814 0.12645903
000100 f5 48 14 3d 52 d0 05 3e f8 80 e6 3d fc 11 9a 3c
       0.03620239 0.13067749 0.112550676 0.018807404
000110 22 71 12 3d a5 cc 99 3c 80 72 df 3c 5a ec c0 bb
       0.035752423 0.01877434 0.027276278 -0.0058875503
000120 24 64 9e bc 56 44 a0 bc 94 fc ae 3d c2 51 fd 3d
       -0.01933486 -0.019563835 0.08544269 0.1236911
000130 25 a8 e2 bc 0e 53 63 3d d9 bc e7 bd e1 81 fc 3d
       -0.027668068 0.05549913 -0.11315317 0.1232946
000140 95 5e 45 3d c7 99 7b bd bd 06 87 bc 21 67 c0 bc
       0.048185904 -0.06142595 -0.016482705 -0.023486676
000150 52 f9 1f 3d a4 11 c1 3c ba 2c cd 3c c4 5a ca bd
       0.03905613 0.023567982 0.025045741 -0.098805934
000160 96 54 07 bd d5 ff 47 3d d6 ee 1e bc 72 ec 0a bd
       -0.03303965 0.048827965 -0.009700498 -0.033916898
000170 bc 70 87 3d dd ab 88 3d b8 79 91 3d 03 54 e1 3c
       0.06613299 0.06673405 0.07103294 0.02750588
000180 26 b3 55 3c 37 9d 22 3c ac a8 91 bd 40 9c 37 bc
       0.013043201 0.009925178 -0.0711225 -0.0112066865
000190 9b 79 96 3d 52 2e 85 3d 8f b0 9e bd 1d 32 87 bd
       0.07347413 0.065029755 -0.0774852 -0.06601355
0001a0 f0 77 d0 3d 9f 74 0e bd e8 6a 0f 3e 30 05 e6 3d
       0.10179126 -0.034779187 0.14005625 0.11231458
0001b0 02 5c 04 3d 41 ac ed bd 66 7f 47 bc cd bd 12 bd
       0.032314308 -0.116051205 -0.01217637 -0.03582554
0001c0 43 cb 52 3d 05 e0 89 3d da ca 11 bd 57 54 07 bd
       0.051463377 0.067321815 -0.035593845 -0.033039417
0001d0 af 94 df bc 4f 9b b1 bc 13 af cd 3b b5 17 1a 3d
       -0.027292578 -0.021680502 0.006276974 0.037620265

sequential_5/dense_15/MatMul f4 [120, 400]
000000 58 47 a7 bd 8e 88 e8 bc 7c 76 81 bd 1c a3 28 3d
       -0.081679046 -0.028385427 -0.06321427 0.04117118
000010 6f 65 d4 bd 8d 70 fb bd d8 ae 61 3d 31 56 c5 bb
       -0.103709094 -0.12277327 0.055098385 -0.0060222377
000020 07 55 a0 bd d5 26 56 bd e1 2d 9d bd 60 c7 b9 bd
       -0.07828718 -0.052283127 -0.07674766 -0.09071231
000030 68 1c 2c bd 6c 85 84 bd 9c de d0 3c 6c d4 df 3c
       -0.042019278 -0.06470761 0.025496773 0.02732297
000040 71 8b 6e 3d 2e c5 94 bd 2f 53 93 bd 90 68 73 bc
       0.05823845 -0.072641715 -0.071936004 -0.014856473
000050 37 83 61 3d 4a 70 c5 bc d5 91 07 bd df dd 7a 3d
       0.055056777 -0.024101395 -0.03309806 0.06124675
000060 e7 f9 c7 bc 7b 7d d3 bd d3 91 14 bc c3 af 5f 3d
       -0.024411155 -0.10326668 -0.00906797 0.05461098
000070 db 92 61 bd 48 ce a1 bc b3 30 33 3d 9d e6 34 bc
       -0.055071693 -0.019751683 0.043747615 -0.011041311
000080 18 12 80 3d 20 17 7d bd 01 4c 21 bb 5d a4 8c 3c
       0.06253451 -0.06178963 -0.0024611952 0.017168218
000090 93 2d 87 bd 60 a4 90 3c 95 aa be 3d 47 73 66 bd
       -0.066004895 0.017656505 0.0930988 -0.05626228
0000a0 bd c6 bf 3d ff 15 96 3d c4 e6 63 3d 23 72 ba 3d
       0.09364078 0.07328414 0.055639997 0.09103801
0000b0 c4 29 3e bc c3 06 d2 bd 2a 20 79 3d ea 35 08 bd
       -0.011606637 -0.10255196 0.06082169 -0.03325454
0000c0 bf da 4f bd 3a a8 87 bd 78 70 da bd 0d 8f d2 bd
       -0.050745722 -0.066238835 -0.10665983 -0.10281191
0000d0 7a 3b 4a bd d6 00 a5 3d 45 b2 07 3d 4d c3 c7 bd
       -0.049373128 0.080568 0.033128995 -0.097540475
0000e0 9a be 31 3d d9 60 15 3d 67 fc 0b bd 1a fd 8d bd
       0.043394662 0.036469314 -0.034176257 -0.06933041
0000f0 7b 46 7b 3c 8e a3 45 bc 0b d3 07 3d 5d 25 00 bd
       0.015336628 -0.01206292 0.03316025 -0.031285632
000100 7f 9c 70 3c c4 83 4a bd d6 e1 b0 bc c4 3d 42 3d
       0.014685749 -0.049442068 -0.021592062 0.047422186
000110 61 2a 8b bd c7 f8 f2 bb 13 94 19 3d da 63 85 bd
       -0.067951925 -0.0074149105 0.03749473 -0.06513186
000120 00 3c 48 3c 74 61 5a 3d 01 ff 05 3d ce 8d c0 bb
       0.012221336 0.053315595 0.032713894 -0.0058762794
000130 50 f7 d0 bd 18 40 18 bd 5e a1 77 bd c3 a0 0c bd
       -0.10203421 -0.0371705 -0.060456626 -0.034333
000140 0c 18 1d 3d 79 6b d3 3c 1a 61 a1 3d e8 d1 ca bc
       0.03835301 0.025808083 0.07879849 -0.024758294
000150 e4 85 a7 bc 92 f9 9c 3d 30 8e 44 3d 8d 70 20 3d
       -0.020449586 0.07664789 0.047987163 0.039169837
000160 34 e1 f3 3c 11 d9 ae 3b 02 35 ab bb 7b a4 b6 3c
       0.029770471 0.005335935 -0.005224825 0.022295227
000170 fe 59 fe 3c bc e7 be bd b0 ba 57 3b 74 ff e6 bc
       0.031048771 -0.093215436 0.003291767 -0.028197981
000180 a8 3d 6c 3d b2 dd e1 bb 7d 05 1a 3c ac 6a df 3c
       0.057675987 -0.006892883 0.009400723 0.027272545
000190 27 d9 12 bd 4f fe 72 3d 96 9e 43 bd ba 50 50 bc
       -0.035851624 0.05932456 -0.04775866 -0.012714559
0001a0 78 bd c9 3d ab 36 a4 3d fe b1 0c bd 77 fb a0 bd
       0.098505914 0.080182396 -0.034349434 -0.07860463
0001b0 07 95 80 bc 85 96 84 bd b8 09 b0 3d e6 5e 6a 3d
       -0.015696062 -0.06474022 0.08595604 0.05721941
0001c0 30 52 2c bd 8f f8 e8 bd f8 cc 4f bd 91 24 5e bd
       -0.042070568 -0.11375534 -0.050732583 -0.05423409
0001d0 2d ac f6 bc e5 75 d5 bd 81 1f 89 bd 09 e6 07 be
       -0.030111397 -0.10422877 -0.06695462 -0.13271345
0001e0 bd 30 28 3d e3 a9 ce bd 0b 17 8f bc 3a d3 e1 3c
       0.041062105 -0.10090997 -0.017467042 0.027566541
0001f0 af 20 c6 bc a0 07 d6 bd 1b 1a 04 3c d5 c2 9e 3d
       -0.024185507 -0.10450673 0.008062865 0.07752005
000200 14 e6 d8 bd 3a 97 47 3d 3a fc 69 bd 76 c7 0e bd
       -0.10590759 0.048728205 -0.057125308 -0.03485819
000210 7f b2 a0 bd 77 78 85 3c e0 51 9e 3d 06 67 6b bd
       -0.078465454 0.016292794 0.0773046 -0.057471298
000220 87 99 4e bd 7c 2d 36 bd 13 d1 52 3d 65 78 f4 3b
       -0.050439384 -0.04447697 0.05146892 0.007460641
000230 c3 6a be 3b 81 a6 b1 3d ba 23 cc 3b dc 0b 3d bd
       0.005811067 0.08674336 0.006229845 -0.046153888
000240 0e d9 a5 3d 5d 63 dc bc e2 02 09 be d4 4c 08 bd
       0.080980405 -0.026902849 -0.13380006 -0.033276394
000250 b9 cc b2 3d 42 8e 95 3d f2 45 6c bc be 59 fb bd
       0.08730454 0.07302524 -0.014420973 -0.12272976
000260 a3 d2 35 bd c8 22 b9 3d 34 7d 1a bd dd 3f 93 3c
       -0.044390332 0.09039837 -0.03771706 0.017974788
000270 d2 ce cb bd 62 0c 99 3d 92 d0 0d bd e6 51 29 3d
       -0.09951557 0.07473065 -0.034622736 0.04133787
000280 4d 47 47 bd 14 8f ab bd 3b 02 8a bd 8f a9 9b bd
       -0.048651982 -0.08376899 -0.06738707 -0.076007
000290 f3 2f e6 bd c0 56 87 3d 1b be b5 3d 9e 79 2e 3a
       -0.11239614 0.06608343 0.0887415 0.00066556956
0002a0 23 c5 88 bd bf 06 db bd d8 b7 29 3d 70 3d 7d bd
       -0.06678226 -0.10694646 0.041435093 -0.06182617
0002b0 45 d7 60 3d 6c 7e 3a bd 3e 88 a0 3d 43 63 43 bd
       0.054892797 -0.04553072 0.07838486 -0.047702085
0002c0 12 ed 9e 3b f2 26 f7 bd 07 4f a4 bd c2 9f 32 3d
       0.0048500383 -0.12067975 -0.08022886 0.04360939
0002d0 91 77 a4 bd 13 a0 91 3d 33 72 9a 3c b3 3d e1 bd
       -0.08030618 0.0711061 0.018853283 -0.10998096
0002e0 cf a3 31 bd 4f 68 84 3c dd a7 1e 3d 02 8a f1 bd
       -0.04336911 0.01616302 0.038734306 -0.11793901
0002f0 85 b7 d2 3c 5a bb e4 3c e6 09 24 bc 99 0e 8a 3c
       0.025722275 0.027921367 -0.010012126 0.016852664
000300 bd 24 b3 bd 64 07 65 bd 26 60 e7 bc 5c e8 dc bc
       -0.08747242 -0.05591525 -0.02824409 -0.026966266
000310 09 a8 41 3d b1 a7 0d bd 3a 3e bc bd 44 14 aa bd
       0.04727939 -0.03458375 -0.09191556 -0.083046466
000320 b7 79 44 bd eb 46 2b 3d 63 18 34 bd 28 bf 15 3d
       -0.04796764 0.04181568 -0.04396857 0.036559254
000330 6e c9 9b bd 75 93 2b bd bc 8e 6b 3b 00 38 2e bd
       -0.07606779 -0.041888673 0.003594323 -0.042533875
000340 f0 3d 5a bd f1 08 c7 bd 4d 63 3b bc c0 cb 69 3d
       -0.053281724 -0.09718502 -0.011437249 0.057079077
000350 1e 7c 4d bc b6 bc 0b 3c 0b 9e a9 bd 80 91 b0 bd
       -0.012541799 0.008528879 -0.082820974 -0.08621502
000360 e7 a8 7b bd e9 f9 83 bd d3 03 2d bc af 68 47 bd
       -0.061440375 -0.06444151 -0.010559994 -0.04868382
000370 a7 ae 61 3d ae 3a 86 3d 3e ea 4a bc ed 39 49 3c
       0.055098202 0.06554161 -0.012384949 0.012281877
000380 b2 be 86 bd fc c3 a3 3c c6 53 c1 bb 4b 92 81 bd
       -0.06579341 0.019990914 -0.005899879 -0.06326731
000390 6f 0e bf 3d 6c 0b b8 3c 53 23 2f 3d 25 5a 0e 3d
       0.09328925 0.022466384 0.042758297 0.034753937
0003a0 ca d5 f8 bc c9 52 60 3d a1 23 95 bd d2 68 78 3d
       -0.03037538 0.05476645 -0.07282186 0.06064684
0003b0 06 1d c5 bc 77 16 eb 3b ab 4a 5f 3c 8a 4d 54 bd
       -0.024061691 0.007174309 0.013628642 -0.05183176
0003c0 1b be 07 bd fa b7 9f 3c d9 db c1 bd 49 e0 84 3d
       -0.033140283 0.019496907 -0.09465761 0.064880915
0003d0 81 2b 39 bd 4d 91 ea 3c ac 26 b3 bc 8c a4 70 3d
       -0.045207504 0.028633738 -0.021869026 0.058750674
0003e0 82 cf 96 3d 43 ef dd bb 30 dc e9 bd d4 1c 4b 3d
       0.07363798 -0.006772907 -0.114189506 0.04958804
0003f0 f4 18 de 3c 9c 91 dc bd 43 ed b5 bd ed bf 91 3d
       0.027111508 -0.1076996 -0.08883145 0.07116685

sequential_5/dense_16/MatMul f4 [84, 120]
000000 ff 63 ff 3d 42 93 8e bd 84 78 8a bd a4 21 ae 3d
       0.124702446 -0.06961681 -0.06761268 0.0850251
000010 86 08 af bd 9c f6 53 3e 0c 1a f3 bd ba af 30 3e
       -0.085465476 0.20699543 -0.118702024 0.17254534
000020 57 c3 ce 3b 1c b1 53 bd 05 2b 29 3e 6f f6 7c 3e
       0.0063099074 -0.051682577 0.16520317 0.24703382
000030 fd db 50 be b6 e2 72 3d 58 b2 21 3e 65 68 c8 3d
       -0.20396419 0.05929824 0.15790689 0.09785537
000040 9a fc 64 be e9 d9 a6 3d 17 d0 0b be fc 7d 09 be
       -0.22361985 0.08147032 -0.13653599 -0.13426965
000050 46 4b 92 3e 3d 64 05 bd a3 50 2c 3e 96 72 09 bd
       0.28573054 -0.032566298 0.16827635 -0.033556543
000060 b4 b4 31 be 3d 88 99 be 13 63 b3 3c cf ef 0a be
       -0.17354089 -0.29986754 0.021897828 -0.13568042
000070 29 34 ec 3d 43 a6 b0 3d fa 55 e2 3c a0 1c 24 be
       0.11533386 0.08625462 0.027628887 -0.16026545
000080 2c 91 1f 3e c9 6a a3 3d 83 97 09 bd 48 7e 97 bd
       0.15582722 0.07979352 -0.03359176 -0.07397133
000090 eb 5b b2 bd f8 68 cd bd 0e 10 11 3c 9d 94 aa bd
       -0.08708938 -0.10029787 0.008853925 -0.08329127
0000a0 14 bf 8a bd d2 b7 93 be 51 8e a9 3d 4a 46 07 3e
       -0.067747265 -0.2885118 0.08279098 0.13210407
0000b0 20 f3 9b 3d 77 f8 20 be a0 e1 98 be fe 4e 00 be
       0.07614732 -0.15719782 -0.29859638 -0.12530133
0000c0 b8 fa 97 bd 81 be 84 3e 41 73 10 3e fd 48 16 be
       -0.07420868 0.25926593 0.14106466 -0.1467628
0000d0 93 08 8e be 7e c5 8b 3d 8f c6 ce 39 d0 49 b5 3d
       -0.27740917 0.06824778 0.0003943932 0.08851969
0000e0 58 80 d8 bd 4c ba b9 3c 73 90 f7 3d 90 a8 9d 3c
       -0.10571355 0.022671841 0.120880984 0.019245416
0000f0 db bd 83 3e 35 5f 18 3e 0b 94 09 be a3 a1 3e be
       0.25730786 0.14880069 -0.1343538 -0.18616347
000100 0e f8 6f 3e 41 8a 0e 3e 21 20 93 3d 48 92 1d be
       0.23434469 0.13919927 0.071838625 -0.15387833
000110 fc 58 4c be b7 04 1f 3e 00 54 4c 3d c6 a0 42 be
       -0.1995582 0.15529142 0.049884796 -0.19006643
000120 37 a7 59 3d b9 44 55 3c c6 50 a6 3d 53 44 e3 3d
       0.053137984 0.013016873 0.08120875 0.11097016
000130 20 6a ab 3d 98 40 38 3d 4e 18 49 3e 5f 23 fc 3e
       0.08369851 0.044983476 0.19638178 0.49245736
000140 9d 14 aa 3d 14 a0 93 bd 6c fd 1e be 54 de 88 bb
       0.08304713 -0.07208267 -0.1552636 -0.004176894
000150 42 2a cf 3d 24 af 5a be 16 d1 8a be 2b e1 2c be
       0.10115482 -0.21355873 -0.27112645 -0.1688277
000160 2d 81 89 bc 36 2b 45 be 7e df 17 be c6 74 36 be
       -0.016785229 -0.19254765 -0.14831349 -0.17817983
000170 06 27 20 be 94 01 cf 3d 99 8a 87 be b7 3c 90 bb
       -0.15639886 0.10107723 -0.2647293 -0.004401769
000180 9d bd 9c be 2b 04 42 be a3 e1 f3 bc 06 9a ce bd
       -0.30613413 -0.18946902 -0.029770678 -0.100879714
000190 9c e4 1a 3e 47 ac 3e 3e 1e f8 d7 bd 62 fa fb 3d
       0.1512627 0.18620406 -0.105453715 0.12303616
0001a0 9c 20 05 3e 14 1c 82 ba 18 8c 59 3e 97 21 9d 3e
       0.1300072 -0.0009926581 0.21244848 0.3068969
0001b0 c6 79 70 3d 16 d7 3e be 28 e5 01 be 40 06 eb 3d
       0.058709882 -0.18636736 -0.12685072 0.114758015
0001c0 6a 81 9f be 3b 79 f6 3d 2b 18 a0 bd 3f 22 03 be
       -0.31153423 0.120348416 -0.0781711 -0.12806033
0001d0 18 29 ab bd e5 3d de bd c6 ae 88 bc 07 2f 87 be
       -0.083574474 -0.10851649 -0.016684901 -0.26403067
0001e0 77 8f bf 3c 1e 8b 7a bd cd 7e 0d be f6 07 2b 3e
       0.023383839 -0.06116783 -0.13817902 0.16702256
0001f0 fc 6c eb 3d 20 0a 10 be 3b 0b 8e 3d b7 fe e0 3d
       0.114953965 -0.14066362 0.06935736 0.10986083
000200 96 de 43 bd da 13 e4 3c 25 d4 1a bb 3f 5c c3 bd
       -0.047819696 0.027841497 -0.0023624983 -0.09539079
000210 3c 9e 81 3e 63 8f 05 be d3 6a 24 be be fa 32 3e
       0.25316036 -0.13042979 -0.16056375 0.17478463
000220 46 10 8d 3e b9 dd 7e bd ac 82 b0 3c 32 92 d0 3d
       0.27551478 -0.06222317 0.021546684 0.101841345
000230 0e b4 39 3d 4f ca 8b be fa ea 77 be 83 7c ae 3b
       0.04533773 -0.27302787 -0.2421073 0.0053249015
000240 a4 3c 0d bc b5 17 04 3e 2e 1a dd 3d 84 6c d6 3d
       -0.008620415 0.12899669 0.10796009 0.104699165
000250 92 eb 6f bd a9 8e 65 3d 22 f2 7d be 61 79 d9 3c
       -0.058574267 0.056044254 -0.24799398 0.026547136
000260 38 12 04 be 8a a9 1e 3e 2d 8c 5d 3d 1a 43 cf 3c
       -0.12897575 0.15494362 0.05408876 0.025300551
000270 ff 89 3d 3e d5 18 1b 3e 5a ac a1 3d b0 6b 3e 3d
       0.18509673 0.15146191 0.078942016 0.046489418
000280 f0 8d 12 3d d5 e9 13 be d6 f6 36 3e 51 05 cd 3d
       0.035779893 -0.14444669 0.17867598 0.1001078
000290 cd 4a dc bd c4 09 12 be b5 2e c6 3d 4c 5a 6f be
       -0.107564546 -0.14261538 0.096768774 -0.2337429
0002a0 7f 69 74 bd bd ed d9 bd 1f 30 06 be a5 89 b5 3d
       -0.05967092 -0.10641048 -0.13104294 0.08864144
0002b0 d7 b4 86 3e 36 94 3b bb c8 5e aa 3e 9d 0a a7 3d
       0.26309845 -0.0028622276 0.33275437 0.08156321
0002c0 63 13 bb 3d 82 f9 37 3e aa a4 b5 bd 22 27 08 3e
       0.09134557 0.17966273 -0.08869298 0.13296178
0002d0 37 11 06 be aa 5a 31 bd d8 a1 77 bb 68 26 50 3e
       -0.13092504 -0.043299355 -0.0037785675 0.20327151
0002e0 dd 92 ec bd 24 12 e3 ba c7 c6 00 be 74 0e 24 bd
       -0.115514494 -0.0017324132 -0.12575828 -0.040052846
0002f0 40 b7 4d 3e 5b 24 2a be ba 03 6c 3d 33 9a 8c 3d
       0.20089436 -0.16615431 0.05762074 0.06865349
000300 73 c4 48 3e 76 d4 28 3e 8e a8 49 bd 14 36 36 3e
       0.1960619 0.16487297 -0.049233012 0.17794067
000310 bc 81 69 3d 5e 06 38 3d ef 6d aa be 5b cf 64 be
       0.05700849 0.044927947 -0.33286998 -0.22344725
000320 98 df 09 be 75 2d 0b be 44 77 20 be ec f5 fc 3c
       -0.134642 -0.13591559 -0.15670496 0.030878983
000330 5b 9f d1 3d 61 c3 34 3e 80 41 01 3c d2 00 f4 3d
       0.10235473 0.17652656 0.007889152 0.11914219
000340 35 ea 1d 3d 3e 47 c5 3d 23 2a b6 3d b3 24 b3 3d
       0.038553435 0.09632729 0.08894756 0.08747234
000350 6a 0e 96 3e 67 69 96 bc 1f 02 99 3d 7a 6d 46 3e
       0.29307872 -0.018360807 0.07471108 0.193777
000360 1a 3c 0c 3e db a8 24 3d 3d 90 eb bd 7b f6 b4 3d
       0.13694802 0.040200096 -0.11502121 0.08836075
000370 40 c3 85 bb 46 3d 78 bd 25 96 3d 3d bc 4a 36 3e
       -0.0040821135 -0.06060531 0.046285767 0.17801946
000380 38 9b 21 3d d9 51 0f be 31 d3 56 be 28 d5 79 be
       0.03945467 -0.13996066 -0.20979 -0.24397719
000390 66 bc 09 be 0c ce 5a 3e 4b 8f 12 be ce f0 63 3e
       -0.13450775 0.21367663 -0.14312474 0.22259828
0003a0 17 0a 77 3d 83 0c 63 3d 76 c9 4a bd 4e ce a9 bd
       0.060312357 0.055431854 -0.049508534 -0.082913026
0003b0 ad f4 e4 bc 9d 58 82 3e eb ec 22 be 91 9d 53 3c
       -0.027948702 0.25458232 -0.1591069 0.012915985
0003c0 38 e8 87 bd f6 9e bb 3c d4 87 64 3d 2d 25 c9 3d
       -0.06636089 0.022902947 0.0557936 0.09821544
0003d0 b5 45 05 3e 78 3f 5c be 6f 55 35 bd 52 79 62 be
       0.13014872 -0.21508586 -0.04427093 -0.22116593
0003e0 34 d0 86 3d f8 2e 66 bd 91 22 3d be 2b 7f c6 bd
       0.0658268 -0.056197137 -0.18470217 -0.09692224
0003f0 5a 77 ed 3d d9 fa 04 be 21 1e 29 be 40 b7 b1 bc
       0.1159503 -0.12986316 -0.165154 -0.021693826

sequential_5/dense_17/MatMul f4 [2, 84]
000000 21 eb cf 3e 0b 21 93 be 79 75 08 bf 33 59 af be
       0.40609077 -0.28736147 -0.5330425 -0.3424774
000010 6e 06 32 bd dd 00 93 3e b4 25 e3 bd ba 8d 0e be
       -0.043463163 0.28711596 -0.11091176 -0.13921252
000020 66 af 93 3c 84 66 7e be f5 00 36 3e 9e 6d a7 be
       0.018027972 -0.24843794 0.17773803 -0.3270082
000030 db f3 45 3e e3 c8 39 be f9 e3 5f 3e be 5b 2e 3e
       0.19331305 -0.18143038 0.21864308 0.17027184
000040 6f 26 48 3e 31 99 4a be c4 12 d1 3d 55 c5 e5 3e
       0.19545911 -0.19785 0.102086574 0.44877115
000050 d1 c9 d5 be 99 27 ae 3c 83 5f 85 3e d8 e3 52 3d
       -0.41755536 0.021259116 0.26049432 0.05148682
000060 1a 97 e2 3e e2 ea cf bc a9 86 6e bd 40 72 a7 be
       0.44255906 -0.025380556 -0.05823389 -0.32704353
000070 58 f3 0d 3e 19 b4 05 3f 28 12 90 3d a9 8c 17 be
       0.1386236 0.5222793 0.07034713 -0.14799751
000080 a6 b0 87 3e 96 30 81 3e 63 dc a8 be 9c 49 c7 3e
       0.2650196 0.2523238 -0.32980642 0.38923347
000090 03 72 d4 be 5d f2 cb 3d 22 5c a5 3e fd 9c e3 3d
       -0.41493234 0.099583365 0.32296854 0.111139275
0000a0 81 68 a4 be e2 19 0f 3d 6d 7b 9e bd f2 7f 2a 3e
       -0.3211098 0.034936793 -0.07738385 0.1665037
0000b0 b4 f3 83 3e 71 6e b7 bd a2 8f b9 be ed f5 39 be
       0.25771868 -0.08956612 -0.36242396 -0.1816022
0000c0 d5 6c 85 be 2e f7 31 bc 14 06 65 3e f8 82 14 3e
       -0.26059595 -0.010862155 0.223656 0.14503086
0000d0 69 6c 7a be 85 45 9e be a8 08 84 3e fd 67 d8 3d
       -0.24455418 -0.30912414 0.25787854 0.10566709
0000e0 a0 ed 0b be 56 2f 91 3e b4 50 7a 3e 40 a5 4f be
       -0.13664865 0.28356427 0.24444848 -0.20277882
0000f0 e5 b3 f3 3e 05 97 7c bd 44 47 b1 bb ec 9e ab be
       0.47598186 -0.06166746 -0.005410107 -0.33519685
000100 28 2a a6 be 25 b2 aa 3e da f6 d9 3c 4e aa ed 3e
       -0.32454038 0.33339038 0.026606966 0.46418995
000110 b9 51 89 be 83 40 8d 3e cd 1f 94 be 17 12 49 be
       -0.26820162 0.2758828 -0.28930512 -0.19635807
000120 5b 04 ea 3e 41 3a f8 3e 48 81 ba be 7e 9d b9 3e
       0.45706448 0.48481944 -0.3642676 0.3625297
000130 c3 43 a9 be f0 aa b0 bc 57 76 8a 3e 60 e1 b7 3e
       -0.3305951 -0.021565884 0.2704341 0.35914135
000140 74 ca 9f 3e 50 97 7d be e0 c0 8c 3d d4 a2 7c 3d
       0.31209147 -0.24764752 0.068727255 0.061678723
000150 d1 f2 ae be 91 e1 ae 3e d3 5c 08 3f 3c 2d 3c 3e
       -0.3416963 0.3415647 0.5326664 0.1837663
000160 8a b4 6d 3e e6 ff cb be bc 96 93 3e 65 2c d6 3e
       0.23213401 -0.39843673 0.2882594 0.41830745
000170 40 32 e7 be 57 fe 21 3e bf d9 b3 be b5 90 4f 3e
       -0.45155525 0.15819679 -0.35127065 0.20270045
000180 a6 27 5f be 91 af 8e 3e 2f eb d1 be 73 bd 98 be
       -0.21792468 0.27868322 -0.40999743 -0.29832038
000190 9d a1 9e be a5 88 bf 3e 11 4b 5f bd 67 08 55 be
       -0.30982676 0.3740894 -0.05451495 -0.20803986
0001a0 45 d4 c1 3d d3 65 c2 be 7a 51 9e be d6 09 f7 be
       0.09464315 -0.3796831 -0.30921537 -0.48249692
0001b0 95 9c bb be 07 d4 fd 3e ab 55 cc 3e ad 78 c9 3d
       -0.366429 0.49575827 0.3990911 0.0983747
0001c0 73 ef 6e be f1 c6 a5 be cc 0e a3 be 5b 73 9d 3e
       -0.2333353 -0.32378343 -0.31847227 0.30752072
0001d0 e6 b2 5e be 3c 24 75 be 55 1a 58 3e 89 42 8c be
       -0.21747932 -0.23939604 0.21103795 -0.27394512
0001e0 0d 93 62 3e e0 50 80 be 88 e6 06 bf 43 84 54 be
       0.22126408 -0.25061703 -0.5269551 -0.20753579
0001f0 fe 9a b7 3e e6 14 db be 40 b0 93 3e cf 3d f2 be
       0.35860437 -0.42789382 0.28845406 -0.4731278
000200 75 8e 8a be e6 d5 8a 3e 04 7f dc 3e b9 92 e7 3d
       -0.2706181 0.27116317 0.43065655 0.11307282
000210 7a 60 8a 3e 32 6e 83 3e 5e c5 70 be f9 7b fe be
       0.2702673 0.2567001 -0.2351279 -0.4970396
000220 0c 17 86 3e ee 8d da bc bc f9 79 be f0 bf a2 be
       0.26189458 -0.026679005 -0.24411672 -0.31787062
000230 1e 2b 20 3d c7 a9 6d be d4 82 60 be 24 3c aa 3e
       0.03910362 -0.23209296 -0.21924907 0.3324901
000240 3a 8b 89 be a4 58 9b be bc e0 a8 be 95 77 ce 3e
       -0.26864034 -0.30341065 -0.3298396 0.4032561
000250 c7 69 9a 3e a6 a2 7c be a6 f3 5f be c1 c1 4d be
       0.30158827 -0.2467142 -0.21870288 -0.20093442
000260 e3 e4 45 3e 01 33 87 bd 51 c0 4b 3e 25 f6 bd 3e
       0.19325595 -0.06601525 0.19897582 0.37101856
000270 c4 7b dc be 8c c4 c8 be 41 66 cd 3e 43 16 c9 be
       -0.43063176 -0.39212453 0.40117076 -0.39274797
000280 75 58 9f 3e c7 2d f2 be b3 55 b5 be f5 74 ba be
       0.31122175 -0.4730055 -0.35416946 -0.36417356
000290 e3 ac a4 be 94 f0 ce 3e 6d 73 bd be f8 e2 e5 be
       -0.32163152 0.40417922 -0.37002125 -0.44899726
