LeNet5/Lenet5_16.tflite (tflite, 127424 bytes, 9 tensors)

sequential_5/conv2d_10/BiasAdd/ReadVariableOp f2 [6]
-0.0972 0.0238 0.1936 0.05392 0.07275 0.013885
00000000: 39ae 1826 3232 e72a a82c 1c23

sequential_5/conv2d_11/BiasAdd/ReadVariableOp f2 [16]
-0.02289 -0.04156 -0.06757 -0.02718 0.09326 -0.03506 0.03162 0.001145
0.03616 0.03726 -0.0168 -0.01512 0.002707 -0.00543 0.002008 -0.0951
00000000: dca5 52a9 53ac f5a6 f82d 7da8 0c28 b114
00000010: a128 c528 4da4 bea3 8b19 8f9d 1d18 16ae

sequential_5/conv2d_10/Conv2D f2 [6, 5, 5, 1]
-0.2068 -0.1813 -0.01272 -0.03833 -0.0741 0.05173 -0.1371 0.0941
0.065 0.1073 0.10126 0.1306 0.08105 -0.07556 -0.1538 -0.0832
0.0376 0.07776 0.0655 0.1527 0.168 0.03906 -0.03244 0.1909
0.0748 0.2329 0.1787 0.1304 0.12354 -0.02617 0.005577 0.1438
0.03102 0.1345 0.05005 -0.1309 -0.0635 -0.1091 -0.10205 0.04913
-0.149 -0.0798 -0.1334 -0.1669 -0.0396 -0.11444 -0.07166 0.02881
-0.12036 0.0743 -0.1226 0.009964 0.1192 0.03464 -0.11115 -0.1588
-0.1744 -0.192 -0.1245 0.1853 0.0157 -0.1941 -0.0632 -0.1887
-0.02087 -0.1276 -0.08813 0.1787 0.07697 -0.00679 -0.04407 0.0697
0.02975 -0.05426 0.2072 -0.002443 0.229 0.2106 0.1238 -0.1327
-0.0662 -0.0695 -0.12036 -0.2405 -0.289 0.1471 0.0923 -0.00924
-0.1927 -0.2908 0.0589 0.1934 0.1909 -0.187 -0.1731 0.01241
0.1923 -0.1333 0.1793 0.1604 -0.1737 0.0727 -0.04294 0.16
0.02898 -0.1864 -0.0704 0.1652 0.2107 0.0204 -0.244 -0.1532
0.10376 -0.01535 -0.004982 -0.0248 0.09064 0.0983 0.03793 0.005627
-0.04172 -0.06696 -0.1245 0.11774 -0.05768 -0.1376 -0.03656 -0.0359
-0.0511 -0.1428 0.00993 -0.02905 -0.006226 -0.2065 -0.1603 -0.1415
0.1521 0.012886 -0.11786 0.03125 0.05655 0.2026 0.1097 -0.01956
-0.03818 0.0965 0.1913 0.1978 0.06616 0.0196
00000000: 9eb2 cdb1 83a2 e8a8 beac 9f2a 63b0 062e
00000010: 292c de2e 7b2e 2e30 302d d6ac ecb0 53ad
00000020: d028 fa2c 312c e330 6031 0029 27a8 1c32
00000030: ca2c 7433 b831 2c30 e82f b3a6 b61d 9a30
00000040: f127 4e30 682a 30b0 10ac fbae 88ae 4a2a
00000050: c5b0 1bad 45b0 57b1 12a9 53af 96ac 6027
00000060: b4af c12c d9af 1a21 a12f 6f28 1daf 15b1
00000070: 95b1 25b2 f8af ee31 0524 36b2 0bac 0ab2
00000080: 58a5 15b0 a4ad b831 ed2c f49e a4a9 762c
00000090: 9e27 f2aa a132 0199 5433 bd32 ec2f 3fb0
000000a0: 3dac 73ac b4af b2b3 a0b4 b530 e82d bba0
000000b0: 2bb2 a7b4 8a2b 3032 1c32 fcb1 8ab1 5b22
000000c0: 2732 44b0 bd31 2231 8fb1 a72c 7fa9 1f31
000000d0: 6b27 f7b1 81ac 4931 be32 3925 cfb3 e7b0
000000e0: a42e dca3 1a9d 59a6 cd2d 4b2e db28 c31d
000000f0: 57a9 49ac f8af 892f 62ab 67b0 aea8 98a8
00000100: 8aaa 92b0 1621 70a7 609e 9cb2 21b1 87b0
00000110: de30 9922 8baf 0028 3d2b 7c32 052f 02a5
00000120: e3a8 2d2e 1f32 5432 3c2c 0525

sequential_5/conv2d_11/Conv2D f2 [16, 5, 5, 6]
-0.06573 0.04922 0.2019 0.1206 -0.1267 0.075 -0.1322 -0.1422
0.1038 -0.0458 -0.02174 0.0722 -0.1317 -0.08795 0.1252 -0.0372
-0.1353 0.0791 -0.088 0.0344 0.1703 -0.0789 0.09424 -0.0389
-0.1205 -0.0764 0.1627 0.0838 0.0501 0.07654 0.05197 -0.10956
0.0835 0.1161 -0.09015 0.09247 0.05646 -0.213 0.1753 0.0416
-0.12256 0.0852 -0.1166 -0.2505 0.1144 0.12213 -0.0707 0.1398
-0.0154 -0.257 0.139 0.124 -0.02657 0.06506 0.0992 -0.1779
0.2563 0.10754 -0.03983 -0.03818 -0.02225 -0.03345 0.1165 0.03024
-0.05713 -0.0737 -0.1125 0.1004 -0.0902 -0.001459 -0.05243 0.04626
0.02435 0.0491 -0.1753 -0.0688 -0.0653 -0.0957 0.06775 -0.07666
0.03177 -0.07416 -0.05176 -0.09546 -0.01379 -0.0001353 0.0659 -0.1083
0.0877 -0.07025 0.0361 0.0139 -0.01098 0.03348 0.0664 0.06256
-0.001326 -0.00233 -0.11633 0.0911 0.11237 -0.05478 -0.01002 0.0911
-0.0875 0.06476 0.04962 0.02126 -0.0843 0.1158 -0.2289 0.0446
0.08167 -0.10547 0.0885 0.0895 -0.1417 0.02115 0.0147 -0.11584
-0.04968 -0.05936 -0.03995 -0.1187 0.0196 0.0852 -0.006443 -0.01834
-0.2047 -0.04388 -0.0745 0.0346 0.03168 0.0736 -0.1844 -0.2166
0.04507 0.1135 0.001259 0.02269 -0.03113 -0.2386 0.05096 0.10034
0.0959 0.003323 -0.246 -0.2057 -0.03815 0.08307 -0.03023 0.06696
0.03064 0.2024 0.0402 0.10913 -0.08716 0.1316 0.1164 -0.1365
0.39 -0.0656 0.0995 -0.01721 -0.0822 -0.03287 0.2651 -0.10596
0.05658 -0.03415 -0.2078 0.1487 0.02017 0.12366 0.001103 -0.0061
-0.3296 0.2573 -0.1704 0.07104 -0.08966 -0.2812 0.1776 0.1625
0.01973 0.1237 -0.0747 -0.0733 0.2852 -0.2551 0.3682 -0.272
0.0666 -0.07166 0.1982 -0.1747 0.312 -0.2622 0.09265 -0.1048
-0.0795 0.1901 0.0953 -0.0582 0.0054 -0.1216 -0.2477 0.1548
-0.10876 0.03668 -0.0945 -0.2257 0.0689 0.3904 -0.4023 0.2162
0.0564 -0.1688 0.3506 -0.002707 0.1136 0.03105 0.00849 -0.01741
0.1904 -0.1759 0.281 -0.11707 -0.1411 -0.0696 -0.1481 -0.2793
0.218 -0.277 0.0042 -0.06604 -0.2878 -0.0503 -0.11017 -0.0645
-0.0007563 -0.1381 0.0609 0.1165 -0.3638 0.07495 0.1131 -0.0362
0.2046 0.1324 -0.2098 0.1671 -0.0356 -0.037 -0.10474 0.1208
00000000: 35ac 4d2a 7632 b82f 0eb0 cd2c 3bb0 8db0
00000010: a52e dda9 91a5 9f2c 37b0 a1ad 0230 c3a8
00000020: 54b0 102d a2ad 6728 7331 0dad 082e fba8
00000030: b6af e4ac 3531 5d2d 6a2a e62c a72a 03af
00000040: 582d 6e2f c5ad eb2d 3a2b d1b2 9c31 5329
00000050: d8af 742d 76af 02b4 522f d12f 86ac 7930
00000060: e3a3 1db4 7330 f02f cda6 2a2c 592e b1b1
00000070: 1a34 e22e 19a9 e3a8 b2a5 48a8 752f be27
00000080: 50ab b8ac 33af 6d2e c6ad fa95 b6aa ec29
00000090: 3c26 492a 9cb1 67ac 2eac 20ae 562c e8ac
000000a0: 1128 bfac a0aa 1cae 0fa3 6f88 382c eeae
000000b0: 9d2d 7fac 9f28 1e23 9fa1 4928 402c 012c
000000c0: 6e95 c698 72af d52d 312f 03ab 21a1 d52d
000000d0: 9aad 252c 5a2a 7125 65ad 692f 53b3 b529
000000e0: 3a2d c0ae aa2d ba2d 89b0 6a25 8723 6aaf
000000f0: 5caa 99ab 1da9 99af 0525 742d 999e b2a4
00000100: 8db2 9ea9 c5ac 6e28 0e28 b62c e7b1 eeb2
00000110: c529 442f 2815 cf25 f8a7 a3b3 862a 6c2e
00000120: 232e ce1a dfb3 95b2 e2a8 512d bda7 492c
00000130: d827 7a32 2529 fc2e 94ad 3630 732f 5eb0
00000140: 3d36 33ac 5e2e 68a4 43ad 35a8 3e34 c8ae
00000150: 3e2b 5fa8 a6b2 c230 2a25 ea2f 8514 3f9e
00000160: 46b5 1e34 74b1 8c2c bdad 80b4 af31 3331
00000170: 0d25 eb2f c8ac b1ac 9034 15b4 e435 5ab4
00000180: 432c 96ac 5832 97b1 fe34 32b4 ee2d b5ae
00000190: 17ad 1532 192e 73ab 881d c8af edb3 f430
000001a0: f6ae b228 0cae 39b3 692c 3f36 70b6 eb32
000001b0: 382b 67b1 9c35 8b99 452f f327 5920 75a4
000001c0: 1832 a1b1 7f34 7eaf 84b0 74ac bdb0 78b4
000001d0: fa32 6fb4 4d1c 3aac 9bb4 70aa 0daf 21ac
000001e0: 3292 6bb0 cc2b 752f d2b5 cc2c 3d2f a2a8
000001f0: 8c32 3d30 b7b2 5931 8fa8 bca8 b4ae bb2f

sequential_5/dense_16/BiasAdd/ReadVariableOp f2 [84]
0.1017 0.02544 0.06396 0.04904 -0.09503 0.1068 0.0009155 0.05124
0.05722 0.01599 0.0543 0.0347 0.0709 0.0728 0.06464 0.05164
0.11664 0.05103 -0.02258 0.082 0.06183 0.09106 0.1038 0.10876
0.0787 0.04218 0.0706 0.04648 0.0977 0.08813 0.0882 0.07794
0.0898 0.0642 0.03436 0.0881 0.02664 0.07245 0.1008 0.082
0.0425 0.09064 0.04846 0.1009 0.04944 0.07355 0.03534 0.02557
0.02362 0.05957 -0.000741 0.10425 0.05 0.001959 0.1017 0.0928
-0.014915 0.06226 0.058 0.0638 0.0979 -0.0329 0.0485 0.0439
0.04532 0.0955 0.0466 0.1456 0.05692 0.07416 0.04782 0.0365
0.07135 0.1038 0.04794 0.06137 0.01148 0.0796 0.0938 0.10565
0.04205 0.0579 0.05682 0.03674
00000000: 822e 8326 182c 472a 15ae d62e 8013 8f2a
00000010: 532b 1824 f32a 7128 8a2c a92c 232c 9c2a
00000020: 772f 882a c8a5 3f2d ea2b d42d a52e f62e
00000030: 092d 6629 852c f329 412e a42d a52d fd2c
00000040: bf2d 1c2c 6628 a32d d226 a32c 742e 3f2d
00000050: 7129 cd2d 342a 752e 542a b52c 8628 8c26
00000060: 0c26 a02b 1292 ac2e 662a 0318 822e f02d
00000070: a3a3 f82b 6d2b 152c 442e 36a8 352a 9f29
00000080: cd29 1d2e f729 a930 492b bf2c 1f2a ac28
00000090: 912c a52e 232a db2b e121 182d 012e c32e
000000a0: 6229 692b 462b b428

sequential_5/dense_15/BiasAdd/ReadVariableOp f2 [120]
-0.021 -0.011604 -0.02762 -0.09204 -0.01331 -0.0008883 -0.02602 -0.01656
-0.03253 -0.02525 0.02797 0.07263 0.0742 -0.02824 0.0644 -0.02966
-0.05444 -0.004436 -0.01625 0.08307 0.02173 -0.0799 0.12134 -0.01261
0.0398 0.02878 0.0735 -0.0816 0.0814 -0.0352 -0.0925 -0.011925
-0.0255 0.0676 -0.07623 0.0316 0.01492 0.03992 0.0348 0.02715
0.04123 -0.01634 -0.0379 0.0005093 0.015526 -0.0275 -0.01807 0.003454
0.0319 0.07935 -0.0308 -0.012726 0.05737 -0.02112 0.03622 0.010666
0.03824 -0.08234 -0.08563 -0.02182 0.00638 -0.02202 0.05157 0.1265
0.0362 0.1307 0.11255 0.01881 0.03577 0.01877 0.02728 -0.005886
-0.01933 -0.01956 0.08545 0.1237 -0.02766 0.0555 -0.11316 0.1233
0.0482 -0.06143 -0.01648 -0.02348 0.03906 0.02357 0.02504 -0.0988
-0.03305 0.04883 -0.0097 -0.0339 0.06616 0.0667 0.07104 0.02751
0.01305 0.009926 -0.0711 -0.01121 0.0735 0.065 -0.0775 -0.06604
0.1018 -0.0348 0.14 0.1123 0.03232 -0.116 -0.01218 -0.03583
0.05145 0.0673 -0.03558 -0.03305 -0.0273 -0.02168 0.006275 0.03763
00000000: 60a5 f1a1 12a7 e4ad d1a2 4793 a9a6 3da4
00000010: 2aa8 77a6 2927 a62c c02c 3ba7 1f2c 98a7
00000020: f8aa 8b9c 29a4 512d 9025 1dad c42f 75a2
00000030: 1829 5e27 b42c 39ad 362d 81a8 ecad 1ba2
00000040: 87a6 542c e1ac 0b28 a423 1c29 7428 f326
00000050: 4729 2fa4 daa8 2c10 f323 0aa7 a0a4 131b
00000060: 1528 142d e3a7 84a2 582b 68a5 a328 7621
00000070: e528 45ad 7bad 96a5 881e a3a5 9a2a 0c30
00000080: a228 2f30 342f d124 9428 ce24 fc26 079e
00000090: f3a4 02a5 782d eb2f 15a7 1b2b 3eaf e42f
000000a0: 2b2a ddab 38a4 03a6 0029 0926 6926 53ae
000000b0: 3ba8 402a f7a0 57a8 3c2c 452c 8c2c 0b27
000000c0: ae22 1521 8dac bda1 b42c 292c f6ac 3aac
000000d0: 842e 74a8 7b30 302f 2328 6daf 3ca2 96a8
000000e0: 962a 4f2c 8ea8 3ba8 fda6 8da5 6d1e d128

sequential_5/dense_15/MatMul f2 [120, 400]
-0.08167 -0.02838 -0.06323 0.04117 -0.1037 -0.1228 0.05508 -0.006023
-0.0783 -0.05228 -0.0767 -0.0907 -0.04202 -0.0647 0.0255 0.02733
0.05823 -0.07263 -0.07196 -0.014854 0.05505 -0.02411 -0.0331 0.06125
-0.02441 -0.1033 -0.00907 0.0546 -0.05508 -0.01974 0.04376 -0.01104
0.06256 -0.0618 -0.00246 0.01717 -0.066 0.01765 0.0931 -0.05627
0.0936 0.0733 0.05563 0.09106 -0.011604 -0.10254 0.06082 -0.03326
-0.05075 -0.0662 -0.1067 -0.1028 -0.04938 0.08057 0.03314 -0.09753
0.0434 0.03647 -0.03418 -0.06934 0.015335 -0.01206 0.03317 -0.03128
0.01469 -0.04944 -0.02159 0.04742 -0.06793 -0.007416 0.0375 -0.0651
0.01222 0.0533 0.0327 -0.005875 -0.10205 -0.03717 -0.06046 -0.03433
0.03836 0.0258 0.0788 -0.02477 -0.02045 0.07666 0.04797 0.03918
0.02977 0.005337 -0.005226 0.0223 0.03105 -0.0932 0.003292 -0.0282
0.05768 -0.006893 0.0094 0.02727 -0.03586 0.05933 -0.04776 -0.01272
0.0985 0.0802 -0.03436 -0.0786 -0.0157 -0.06476 0.08594 0.05722
-0.04208 -0.1138 -0.05072 -0.05423 -0.0301 -0.10425 -0.06696 -0.1327
0.04108 -0.1009 -0.01747 0.02757 -0.02419 -0.1045 0.008064 0.0775
-0.1059 0.04874 -0.05713 -0.03485 -0.0785 0.0163 0.07733 -0.05746
-0.05045 -0.04446 0.05148 0.00746 0.00581 0.08673 0.00623 -0.04614
0.081 -0.0269 -0.1338 -0.03326 0.0873 0.073 -0.01442 -0.12274
-0.0444 0.0904 -0.03772 0.01797 -0.0995 0.0747 -0.03464 0.04135
-0.04865 -0.08374 -0.0674 -0.076 -0.11237 0.0661 0.08875 0.0006657
-0.0668 -0.10693 0.04144 -0.06183 0.0549 -0.04553 0.07837 -0.0477
0.00485 -0.12067 -0.0802 0.0436 -0.0803 0.0711 0.01886 -0.11
-0.04337 0.01616 0.03873 -0.1179 0.02573 0.02792 -0.01001 0.01685
-0.08746 -0.0559 -0.02824 -0.02696 0.04727 -0.03458 -0.0919 -0.08307
-0.04797 0.0418 -0.04398 0.03656 -0.07605 -0.0419 0.003593 -0.04254
-0.05328 -0.09717 -0.01144 0.05707 -0.01254 0.00853 -0.0828 -0.08624
-0.06143 -0.06445 -0.01056 -0.04868 0.05508 0.06555 -0.01238 0.01228
-0.0658 0.01999 -0.0059 -0.0633 0.09326 0.02246 0.04276 0.03476
-0.03038 0.05478 -0.0728 0.06064 -0.02406 0.007175 0.013626 -0.05182
-0.03314 0.0195 -0.09467 0.0649 -0.0452 0.02864 -0.02187 0.05875
0.0736 -0.00677 -0.1142 0.0496 0.02711 -0.1077 -0.0888 0.07117
00000000: 3aad 44a7 0cac 4529 a3ae dcaf 0d2b 2b9e
00000010: 03ad b1aa e9ac cead 61a9 24ac 8726 ff26
00000020: 742b a6ac 9bac 9ba3 0c2b 2ca6 3da8 d72b
00000030: 40a6 9cae a5a0 fd2a 0dab 0ea5 9a29 a7a1
00000040: 012c e9ab 0a99 6524 39ac 8524 f52d 34ab
00000050: fe2d b12c 1f2b d42d f1a1 90ae c92b 42a8
00000060: 7faa 3dac d4ae 94ae 52aa 282d 3e28 3eae
00000070: 8e29 ab28 60a8 70ac da23 2da2 3f28 01a8
00000080: 8523 54aa 87a5 122a 59ac 989f cd28 2bac
00000090: 4222 d32a 3028 049e 88ae c2a8 bdab 65a8
000000a0: e928 9b26 0b2d 57a6 3ca5 e82c 242a 0429
000000b0: 9f27 771d 5a9d b525 f327 f7ad be1a 38a7
000000c0: 622b 0f9f d020 fb26 97a8 982b 1daa 83a2
000000d0: 4e2e 222d 66a8 08ad 05a4 25ac 802d 532b
000000e0: 63a9 48af 7eaa f1aa b5a7 acae 49ac 3fb0
000000f0: 4229 75ae 79a4 0f27 31a6 b0ae 2120 f62c
00000100: c7ae 3d2a 50ab 76a8 06ad 2c24 f32c 5bab
00000110: 75aa b1a9 972a a41f f31d 8d2d 611e e8a9
00000120: 2f2d e3a6 48b0 42a8 962d ac2c 62a3 dbaf
00000130: afa9 c92d d4a8 9a24 5eae c82c 6fa8 4b29
00000140: 3aaa 5cad 50ac ddac 31af 3b2c ae2d 7411
00000150: 46ac d8ae 4e29 eaab 072b d4a9 042d 1baa
00000160: f71c b9af 22ad 9529 24ad 8d2c d424 0aaf
00000170: 8da9 2324 f528 8caf 9626 2627 20a1 5024
00000180: 99ad 28ab 3ba7 e7a6 0d2a 6da8 e2ad 51ad
00000190: 24aa 5a29 a1a9 ae28 deac 5da9 5c1b 72a9
000001a0: d2aa 38ae dba1 4e2b 6ca2 5e20 4dad 85ad
000001b0: ddab 20ac 68a1 3baa 0d2b 322c 57a2 4a22
000001c0: 36ac 1e25 0b9e 0dac f82d c025 7929 7328
000001d0: c7a7 032b a9ac c32b 29a6 591f fa22 a2aa
000001e0: 3ea8 fe24 0fae 272c c9a9 5527 99a5 852b
000001f0: b62c ef9e 4faf 592a f126 e5ae afad 8e2c

sequential_5/dense_16/MatMul f2 [84, 120]
0.1247 -0.06964 -0.0676 0.085 -0.08545 0.207 -0.1187 0.1725
0.00631 -0.0517 0.1652 0.2471 -0.204 0.0593 0.158 0.09784
-0.2236 0.0815 -0.1366 -0.1343 0.2856 -0.03256 0.1683 -0.03357
-0.1736 -0.2998 0.0219 -0.1356 0.11536 0.08624 0.02763 -0.1603
0.1559 0.0798 -0.0336 -0.074 -0.0871 -0.1003 0.00886 -0.0833
-0.06775 -0.2886 0.08276 0.1321 0.0762 -0.1572 -0.2986 -0.1252
-0.0742 0.2593 0.1411 -0.1467 -0.2773 0.06824 0.0003943 0.0885
-0.1057 0.02267 0.1209 0.01924 0.2573 0.1488 -0.1344 -0.1862
0.2344 0.1392 0.07184 -0.1539 -0.1996 0.1553 0.0499 -0.1901
0.05313 0.013016 0.08124 0.11096 0.0837 0.04498 0.1964 0.4924
0.08307 -0.0721 -0.1553 -0.004177 0.10114 -0.2135 -0.2712 -0.1688
-0.01678 -0.1925 -0.1483 -0.1782 -0.1564 0.1011 -0.2646 -0.004402
-0.3062 -0.1895 -0.02977 -0.1009 0.1512 0.1862 -0.10547 0.12305
0.13 -0.000993 0.2124 0.307 0.05872 -0.1864 -0.1268 0.11475
-0.3115 0.12036 -0.0782 -0.128 -0.08356 -0.1085 -0.01668 -0.264
0.02338 -0.06116 -0.1382 0.167 0.1149 -0.1406 0.06934 0.10986
-0.04782 0.02785 -0.002363 -0.0954 0.2532 -0.1304 -0.1605 0.1748
0.2756 -0.06223 0.02155 0.10187 0.04535 -0.273 -0.2421 0.005325
-0.00862 0.129 0.108 0.1047 -0.05856 0.05603 -0.248 0.02655
-0.129 0.1549 0.05408 0.0253 0.185 0.1515 0.0789 0.04648
0.03577 -0.1444 0.1787 0.1001 -0.10754 -0.1426 0.09674 -0.2338
-0.05966 -0.1064 -0.1311 0.0886 0.2632 -0.002863 0.3328 0.08154
0.0914 0.1797 -0.0887 0.1329 -0.131 -0.0433 -0.003778 0.2032
-0.11554 -0.001733 -0.1257 -0.04004 0.2009 -0.1661 0.05762 0.06866
0.196 0.1649 -0.04922 0.178 0.057 0.04492 -0.3328 -0.2234
-0.1346 -0.1359 -0.1567 0.03088 0.10236 0.1765 0.00789 0.11914
0.03854 0.0963 0.0889 0.08746 0.293 -0.01836 0.0747 0.1937
0.137 0.0402 -0.11505 0.0884 -0.00408 -0.0606 0.0463 0.178
0.03946 -0.14 -0.2098 -0.244 -0.1345 0.2136 -0.1431 0.2227
0.0603 0.05542 -0.0495 -0.0829 -0.02795 0.2546 -0.159 0.01292
-0.06635 0.0229 0.0558 0.0982 0.1301 -0.2151 -0.04428 -0.2212
0.06586 -0.05618 -0.1847 -0.0969 0.11597 -0.1299 -0.1652 -0.0217
00000000: fb2f 75ac 54ac 712d 78ad a032 99af 8531
00000010: 761e 9eaa 4931 e833 87b2 972b 0e31 432e
00000020: 28b3 372d 5fb0 4cb0 9234 2ba8 6331 4ca8
00000030: 8eb1 ccb4 9b25 57b0 622f 852d 1327 21b1
00000040: fd30 1b2d 4da8 bcac 93ad 6bae 8920 55ad
00000050: 56ac 9eb4 4c2d 3a30 e02c 08b1 c7b4 02b0
00000060: c0ac 2634 8430 b2b0 70b4 5e2c 760e aa2d
00000070: c4ae ce25 bd2f ed24 1e34 c330 4db0 f5b1
00000080: 8033 7430 992c edb0 63b2 f830 632a 15b2
00000090: cd2a aa22 332d 1a2f 5b2d c229 4932 e137
000000a0: 512d 9dac f8b0 479c 792e d5b2 57b4 67b1
000000b0: 4ca4 29b2 bfb0 b4b1 01b1 782e 3cb4 829c
000000c0: e6b4 10b2 9fa7 75ae d730 f531 c0ae e02f
000000d0: 2930 1194 cc32 e934 842b f7b1 0fb0 582f
000000e0: fcb4 b42f 01ad 19b0 59ad f2ae 45a4 39b4
000000f0: fc25 d4ab 6cb0 5831 5b2f 80b0 702c 082f
00000100: 1faa 2127 d798 1bae 0d34 2cb0 23b1 9831
00000110: 6934 f7ab 8425 852e ce29 5eb4 bfb3 741d
00000120: 6aa0 2130 e92e b32e 7fab 2c2b f0b3 cc26
00000130: 21b0 f530 ec2a 7a26 ec31 d930 0d2d f329
00000140: 9428 9fb0 b831 682e e2ae 90b0 312e 7bb3
00000150: a3ab cfae 32b0 ac2d 3634 dd99 5335 382d
00000160: d92d c031 adad 4130 31b0 8ba9 bd9b 8132
00000170: 65af 1997 06b0 20a9 6e32 51b1 602b 652c
00000180: 4632 4731 4daa b231 4c2b c029 53b5 26b3
00000190: 4fb0 59b0 04b1 e827 8d2e a631 0a20 a02f
000001a0: ef28 2a2e b12d 992d b034 b3a4 c82c 3332
000001b0: 6230 2529 5daf a82d 2e9c c2ab ed29 b231
000001c0: 0d29 7bb0 b7b2 cfb3 4eb0 d632 94b0 2033
000001d0: b82b 182b 56aa 4ead 28a7 1334 17b1 9d22
000001e0: 3fac dd25 242b 492e 2a30 e2b2 aba9 14b3
000001f0: 372c 31ab e9b1 34ae 6c2f 28b0 49b1 8ea5

sequential_5/dense_17/MatMul f2 [2, 84]
0.406 -0.2874 -0.533 -0.3425 -0.04346 0.287 -0.1109 -0.1392
0.01802 -0.2484 0.1777 -0.327 0.1934 -0.1814 0.2186 0.1703
0.1954 -0.1979 0.1021 0.4487 -0.4175 0.02126 0.2605 0.05148
0.4426 -0.02538 -0.05823 -0.3271 0.1387 0.5225 0.0704 -0.148
0.2651 0.2524 -0.3298 0.3892 -0.415 0.0996 0.323 0.11115
-0.321 0.03494 -0.0774 0.1665 0.2578 -0.08954 -0.3623 -0.1816
-0.2605 -0.010864 0.2236 0.145 -0.2445 -0.309 0.2578 0.10565
-0.1366 0.2834 0.2445 -0.2028 0.476 -0.06168 -0.00541 -0.3352
-0.3245 0.3335 0.02661 0.464 -0.2683 0.276 -0.2893 -0.1964
0.457 0.4849 -0.3643 0.3625 -0.3306 -0.02156 0.2705 0.3591
0.312 -0.2477 0.0687 0.06168 -0.3418 0.3416 0.5327 0.1837
0.2322 -0.3984 0.2883 0.4182 -0.4517 0.1582 -0.3513 0.2028
-0.2179 0.2786 -0.41 -0.2983 -0.3098 0.374 -0.0545 -0.208
0.09467 -0.3796 -0.3093 -0.4824 -0.3665 0.4958 0.3992 0.0984
-0.2333 -0.3237 -0.3184 0.3076 -0.2175 -0.2394 0.211 -0.274
0.2213 -0.2507 -0.527 -0.2075 0.3586 -0.428 0.2886 -0.4731
-0.2705 0.2712 0.4307 0.1131 0.2703 0.2566 -0.2351 -0.497
0.262 -0.02667 -0.2441 -0.3179 0.0391 -0.232 -0.2192 0.3325
-0.2686 -0.3035 -0.3298 0.4033 0.3015 -0.2467 -0.2188 -0.2009
0.1932 -0.06604 0.199 0.371 -0.4307 -0.392 0.4011 -0.3928
0.3113 -0.473 -0.3542 -0.3643 -0.3215 0.4043 -0.37 -0.449
00000000: 7f36 99b4 44b8 7bb5 90a9 9834 19af 74b0
00000010: 9d24 f3b3 b031 3bb5 3032 ceb1 ff32 7331
00000020: 4132 55b2 892e 2e37 aeb6 7125 2b34 972a
00000030: 1537 7fa6 74ab 3cb5 7030 2e38 812c bcb0
00000040: 3e34 0a34 47b5 3a36 a4b6 602e 2b35 1d2f
00000050: 23b5 7928 f4ac 5431 2034 bbad ccb5 d0b1
00000060: 2bb4 90a1 2833 a430 d3b3 f2b4 2034 c32e
00000070: 5fb0 8934 d333 7db2 9e37 e5ab 8a9d 5db5
00000080: 31b5 5635 d026 6d37 4bb4 6a34 a1b4 49b2
00000090: 5037 c237 d4b5 cd35 4ab5 85a5 5434 bf35
000000a0: fe34 edb3 662c e52b 78b5 7735 4338 e131
000000b0: 6e33 60b6 9d34 b136 3ab7 1031 9fb5 7d32
000000c0: f9b2 7534 8fb6 c6b4 f5b4 fc35 faaa a8b2
000000d0: 0f2e 13b6 f3b4 b8b7 ddb5 ef37 6336 4c2e
000000e0: 77b3 2eb5 18b5 ec34 f6b2 a9b3 c132 62b4
000000f0: 1533 03b4 37b8 a4b2 bd35 d9b6 9e34 92b7
00000100: 54b4 5734 e436 3d2f 5334 1b34 86b3 f4b7
00000110: 3134 d4a6 d0b3 16b5 0129 6db3 04b3 5235
00000120: 4cb4 dbb4 47b5 7436 d334 e5b3 00b3 6eb2
00000130: 2f32 3aac 5e32 f035 e4b6 46b6 6b36 49b6
00000140: fb34 91b7 abb5 d4b5 25b5 7836 ecb5 2fb7
