LeNet5/ln5.tflite (tflite, 66928 bytes, 10 tensors)

sequential_5/dense_17/MatMul f4 [2, 84]
00000000: 21eb cf3e 0b21 93be 7975 08bf 3359 afbe
00000010: 6e06 32bd dd00 933e b425 e3bd ba8d 0ebe
00000020: 66af 933c 8466 7ebe f500 363e 9e6d a7be
00000030: dbf3 453e e3c8 39be f9e3 5f3e be5b 2e3e
00000040: 6f26 483e 3199 4abe c412 d13d 55c5 e53e
00000050: d1c9 d5be 9927 ae3c 835f 853e d8e3 523d
00000060: 1a97 e23e e2ea cfbc a986 6ebd 4072 a7be
00000070: 58f3 0d3e 19b4 053f 2812 903d a98c 17be
00000080: a6b0 873e 9630 813e 63dc a8be 9c49 c73e
00000090: 0372 d4be 5df2 cb3d 225c a53e fd9c e33d
000000a0: 8168 a4be e219 0f3d 6d7b 9ebd f27f 2a3e
000000b0: b4f3 833e 716e b7bd a28f b9be edf5 39be
000000c0: d56c 85be 2ef7 31bc 1406 653e f882 143e
000000d0: 696c 7abe 8545 9ebe a808 843e fd67 d83d
000000e0: a0ed 0bbe 562f 913e b450 7a3e 40a5 4fbe
000000f0: e5b3 f33e 0597 7cbd 4447 b1bb ec9e abbe
00000100: 282a a6be 25b2 aa3e daf6 d93c 4eaa ed3e
00000110: b951 89be 8340 8d3e cd1f 94be 1712 49be
00000120: 5b04 ea3e 413a f83e 4881 babe 7e9d b93e
00000130: c343 a9be f0aa b0bc 5776 8a3e 60e1 b73e
00000140: 74ca 9f3e 5097 7dbe e0c0 8c3d d4a2 7c3d
00000150: d1f2 aebe 91e1 ae3e d35c 083f 3c2d 3c3e
00000160: 8ab4 6d3e e6ff cbbe bc96 933e 652c d63e
00000170: 4032 e7be 57fe 213e bfd9 b3be b590 4f3e
00000180: a627 5fbe 91af 8e3e 2feb d1be 73bd 98be
00000190: 9da1 9ebe a588 bf3e 114b 5fbd 6708 55be
000001a0: 45d4 c13d d365 c2be 7a51 9ebe d609 f7be
000001b0: 959c bbbe 07d4 fd3e ab55 cc3e ad78 c93d
000001c0: 73ef 6ebe f1c6 a5be cc0e a3be 5b73 9d3e
000001d0: e6b2 5ebe 3c24 75be 551a 583e 8942 8cbe
000001e0: 0d93 623e e050 80be 88e6 06bf 4384 54be
000001f0: fe9a b73e e614 dbbe 40b0 933e cf3d f2be
00000200: 758e 8abe e6d5 8a3e 047f dc3e b992 e73d
00000210: 7a60 8a3e 326e 833e 5ec5 70be f97b febe
00000220: 0c17 863e ee8d dabc bcf9 79be f0bf a2be
00000230: 1e2b 203d c7a9 6dbe d482 60be 243c aa3e
00000240: 3a8b 89be a458 9bbe bce0 a8be 9577 ce3e
00000250: c769 9a3e a6a2 7cbe a6f3 5fbe c1c1 4dbe
00000260: e3e4 453e 0133 87bd 51c0 4b3e 25f6 bd3e
00000270: c47b dcbe 8cc4 c8be 4166 cd3e 4316 c9be
00000280: 7558 9f3e c72d f2be b355 b5be f574 babe
00000290: e3ac a4be 94f0 ce3e 6d73 bdbe f8e2 e5be
0.40609077 -0.28736147 -0.5330425 -0.3424774 -0.043463163 0.28711596 -0.11091176 -0.13921252
0.018027972 -0.24843794 0.17773803 -0.3270082 0.19331305 -0.18143038 0.21864308 0.17027184
0.19545911 -0.19785 0.102086574 0.44877115 -0.41755536 0.021259116 0.26049432 0.05148682
0.44255906 -0.025380556 -0.05823389 -0.32704353 0.1386236 0.5222793 0.07034713 -0.14799751
0.2650196 0.2523238 -0.32980642 0.38923347 -0.41493234 0.099583365 0.32296854 0.111139275
-0.3211098 0.034936793 -0.07738385 0.1665037 0.25771868 -0.08956612 -0.36242396 -0.1816022
-0.26059595 -0.010862155 0.223656 0.14503086 -0.24455418 -0.30912414 0.25787854 0.10566709
-0.13664865 0.28356427 0.24444848 -0.20277882 0.47598186 -0.06166746 -0.005410107 -0.33519685
-0.32454038 0.33339038 0.026606966 0.46418995 -0.26820162 0.2758828 -0.28930512 -0.19635807
0.45706448 0.48481944 -0.3642676 0.3625297 -0.3305951 -0.021565884 0.2704341 0.35914135
0.31209147 -0.24764752 0.068727255 0.061678723 -0.3416963 0.3415647 0.5326664 0.1837663
0.23213401 -0.39843673 0.2882594 0.41830745 -0.45155525 0.15819679 -0.35127065 0.20270045
-0.21792468 0.27868322 -0.40999743 -0.29832038 -0.30982676 0.3740894 -0.05451495 -0.20803986
0.09464315 -0.3796831 -0.30921537 -0.48249692 -0.366429 0.49575827 0.3990911 0.0983747
-0.2333353 -0.32378343 -0.31847227 0.30752072 -0.21747932 -0.23939604 0.21103795 -0.27394512
0.22126408 -0.25061703 -0.5269551 -0.20753579 0.35860437 -0.42789382 0.28845406 -0.4731278
-0.2706181 0.27116317 0.43065655 0.11307282 0.2702673 0.2567001 -0.2351279 -0.4970396
0.26189458 -0.026679005 -0.24411672 -0.31787062 0.03910362 -0.23209296 -0.21924907 0.3324901
-0.26864034 -0.30341065 -0.3298396 0.4032561 0.30158827 -0.2467142 -0.21870288 -0.20093442
0.19325595 -0.06601525 0.19897582 0.37101856 -0.43063176 -0.39212453 0.40117076 -0.39274797
0.31122175 -0.4730055 -0.35416946 -0.36417356 -0.32163152 0.40417922 -0.37002125 -0.44899726

sequential_5/dense_15/BiasAdd/ReadVariableOp f4 [120]
00000000: 7001 acbc fc2d 3ebc c93c e2bc 3574 bcbd
00000010: d81c 5abc ded4 68ba 221f d5bc 7aa6 87bc
00000020: f33d 05bd 45e2 cebc f92e e53c 8ccc 943d
00000030: 4701 983d a552 e7bc 05ef 833d d00f f3bc
00000040: 07fd 5ebd f55a 91bb 2520 85bc 6b2b aa3d
00000050: b6f2 b13c 119d a3bd dc7d f83d 719a 4ebc
00000060: 5cf0 223d b1b7 eb3c 4a74 963d c316 a7bd
00000070: afb5 a63d 8e1c 10bd 8377 bdbd cb56 43bc
00000080: f1e8 d0bc a07f 8a3d fb1f 9cbd 9f54 013d
00000090: 0383 743c b771 233d 8571 0e3d d05a de3c
000000a0: cce0 283d f6d4 85bc 1033 1bbd e476 053a
000000b0: 5068 7e3c 2047 e1bc dcf3 93bc 615a 623b
000000c0: dca6 023d ab7a a23d 2361 fcbc 0a88 50bc
000000d0: d1f6 6a3d 5707 adbc 6b6f 143d 44c0 2e3c
000000e0: 7bac 1c3d 0aa0 a8bd 7264 afbd 00b1 b2bc
000000f0: 1d06 d13b 995a b4bc 0547 533d 7a7e 013e
00000100: f548 143d 52d0 053e f880 e63d fc11 9a3c
00000110: 2271 123d a5cc 993c 8072 df3c 5aec c0bb
00000120: 2464 9ebc 5644 a0bc 94fc ae3d c251 fd3d
00000130: 25a8 e2bc 0e53 633d d9bc e7bd e181 fc3d
00000140: 955e 453d c799 7bbd bd06 87bc 2167 c0bc
00000150: 52f9 1f3d a411 c13c ba2c cd3c c45a cabd
00000160: 9654 07bd d5ff 473d d6ee 1ebc 72ec 0abd
00000170: bc70 873d ddab 883d b879 913d 0354 e13c
00000180: 26b3 553c 379d 223c aca8 91bd 409c 37bc
00000190: 9b79 963d 522e 853d 8fb0 9ebd 1d32 87bd
000001a0: f077 d03d 9f74 0ebd e86a 0f3e 3005 e63d
000001b0: 025c 043d 41ac edbd 667f 47bc cdbd 12bd
000001c0: 43cb 523d 05e0 893d daca 11bd 5754 07bd
000001d0: af94 dfbc 4f9b b1bc 13af cd3b b517 1a3d
-0.02099678 -0.011607643 -0.027616875 -0.09201852 -0.013312541 -0.00088818173 -0.026015822 -0.016558874
-0.032529783 -0.025254378 0.0279765 0.07265577 0.07422119 -0.02823765 0.06442074 -0.029670626
-0.054440524 -0.0044358918 -0.01625068 0.083090626 0.021722179 -0.079889424 0.12133381 -0.012610064
0.039780006 0.028774114 0.07346399 -0.08158638 0.08140122 -0.035183482 -0.09251311 -0.0119225485
-0.0255017 0.06762624 -0.07623287 0.03157484 0.014923814 0.03990337 0.03477623 0.027142912
0.041230008 -0.0163369 -0.037890494 0.00050912634 0.0155278 -0.027499735 -0.018060617 0.0034538733
0.03189741 0.07933553 -0.030808037 -0.012727747 0.05736429 -0.021121664 0.03623907 0.010665957
0.038250428 -0.0823365 -0.0856408 -0.021812916 0.0063789026 -0.022015857 0.0515814 0.12645903
0.03620239 0.13067749 0.112550676 0.018807404 0.035752423 0.01877434 0.027276278 -0.0058875503
-0.01933486 -0.019563835 0.08544269 0.1236911 -0.027668068 0.05549913 -0.11315317 0.1232946
0.048185904 -0.06142595 -0.016482705 -0.023486676 0.03905613 0.023567982 0.025045741 -0.098805934
-0.03303965 0.048827965 -0.009700498 -0.033916898 0.06613299 0.06673405 0.07103294 0.02750588
0.013043201 0.009925178 -0.0711225 -0.0112066865 0.07347413 0.065029755 -0.0774852 -0.06601355
0.10179126 -0.034779187 0.14005625 0.11231458 0.032314308 -0.116051205 -0.01217637 -0.03582554
0.051463377 0.067321815 -0.035593845 -0.033039417 -0.027292578 -0.021680502 0.006276974 0.037620265

sequential_5/dense_16/BiasAdd/ReadVariableOp f4 [84]
00000000: cc47 d03d a755 d03c ec00 833d 15dd 483d
00000010: 759d c2bd a6c4 da3d 8a09 703a 93de 513d
00000020: 1662 6a3d 5807 833c 4959 5e3d 991f 0e3d
00000030: fd4f 913d 2117 953d 0652 843d fa82 533d
00000040: 04e4 ee3d 980b 513d 02f2 b8bc 7ce9 a73d
00000050: 5a3d 7d3d a78d ba3d 8890 d43d 6bbe de3d
00000060: da17 a13d 4bc8 2c3d 25ae 903d 245c 3e3d
00000070: a129 c83d b482 b43d 72a5 b43d 5791 9f3d
00000080: f8e4 b73d 1f82 833d ddbe 0c3d 7c6a b43d
00000090: 1441 da3c c559 943d 0f86 ce3d 7cef a73d
000000a0: 902f 2e3d 1ba2 b93d 5282 463d 38a9 ce3d
000000b0: ae74 4a3d 1da4 963d 86c6 103d 2e72 d13c
000000c0: bd81 c13c 4800 743d 0b36 42ba 2476 d53d
000000d0: 20b6 4c3d 136b 003b 594a d03d b4fe bd3d
000000e0: 7056 74bc 560e 7f3d 639f 6d3d 83ae 823d
000000f0: 5b7a c83d f6b1 06bd 8fa1 463d 88d7 333d
00000100: 1da5 393d 0f9d c33d 69eb 3e3d 4228 153e
00000110: c412 693d 33e5 973d 50d7 433d df75 153d
00000120: 871c 923d daa0 d43d 9e60 443d 8955 7b3d
00000130: cf1a 3c3c 6802 a33d fc26 c03d 056f d83d
00000140: 8a42 2c3d ff22 6d3d 15b5 683d 8c8c 163d
0.10169944 0.025431467 0.0639666 0.049038965 -0.09502689 0.10682039 0.0009156695 0.051237654
0.05722245 0.015994713 0.054284368 0.034698103 0.07095335 0.07279802 0.06460957 0.05163858
0.11664584 0.051036447 -0.022576336 0.081988305 0.061826088 0.09109049 0.1037913 0.10876163
0.078658774 0.0421832 0.070644654 0.04647459 0.09773565 0.08813992 0.08820619 0.07791393
0.08979219 0.06421303 0.03436171 0.08809373 0.02664236 0.07243685 0.100841634 0.08199975
0.042525828 0.09064122 0.048464127 0.1009087 0.04942768 0.07355521 0.035345577 0.02556714
0.023621434 0.05957058 -0.0007408566 0.10422924 0.049978375 0.0019595071 0.10170431 0.092770964
-0.014913186 0.06226953 0.05801333 0.06380942 0.097889625 -0.03288456 0.048493918 0.04390672
0.04532348 0.09551441 0.046611223 0.14566138 0.056902662 0.07416763 0.04781276 0.036489364
0.071343474 0.103822425 0.047943704 0.06136087 0.011481001 0.07959443 0.09382436 0.1056805
0.042055644 0.057894703 0.05681332 0.03675513

sequential_5/dense_17/BiasAdd/ReadVariableOp f4 [2]
00000000: 8029 47bc f629 473c
-0.01215589 0.012156

sequential_5/conv2d_10/BiasAdd/ReadVariableOp f4 [6]
00000000: 1f23 c7bd 47f9 c23c 9747 463e faec 5c3d
00000010: 46fe 943d 7777 633c
-0.09723496 0.023800505 0.19363247 0.053936936 0.07275061 0.013883463

sequential_5/conv2d_11/BiasAdd/ReadVariableOp f4 [16]
00000000: 5879 bbbc f439 2abd 5564 8abd 2fa6 debc
00000010: 59fe be3d f59e 0fbd fe75 013d 3214 963a
00000020: ec26 143d 5a91 183d 76a2 89bc 29be 77bc
00000030: e053 313b 14da b1bb bba8 033b 1bb4 c2bd
-0.02288501 -0.041559175 -0.06757418 -0.027178852 0.09325857 -0.035063703 0.031606667 0.001145011
0.03616993 0.037247993 -0.0168011 -0.015121021 0.002705805 -0.0054276083 0.0020089585 -0.09507009

sequential_5/conv2d_10/Conv2D f4 [6, 5, 5, 1]
00000000: 97cd 53be 6691 39be 3c55 50bc 18fa 1cbd
00000010: 07ca 97bd d2d5 533d f766 0cbe a6bb c03d
00000020: 1f29 853d 16c9 db3d 9f58 cf3d 3cb5 053e
00000030: 52fa a53d 43b8 9abd 9d8b 1dbe e256 aabd
00000040: 7df3 193d fe32 9f3d a02e 863d 9e57 1c3e
00000050: df06 2c3e 1d07 203d d4dc 04bd 9583 433e
00000060: a649 993d fb76 6e3e 16f7 363e e786 053e
00000070: c7fe fc3d 906e d6bc 73cf b63b e030 133e
00000080: a52a fe3c 9db1 093e a4fb 4c3d 7d0f 06be
00000090: 6cff 81bd e06e dfbd 8501 d1bd e73c 493d
000000a0: b998 18be 936f a3bd 2c94 08be 2fed 2abe
000000b0: ce3f 22bd 2265 eabd aacc 92bd 2b0f ec3c
000000c0: c37b f6bd a422 983d 2b12 fbbd d845 233c
000000d0: bd22 f43d 0ddb 0d3d 389f e3bd caad 22be
000000e0: 5ea6 32be 7994 44be 42f6 febd d5c5 3d3e
000000f0: a0a9 803c f1c9 46be e753 81bd ff32 41be
00000100: a4f6 aabc bca0 02be 6271 b4bd 3afc 363e
00000110: 10a7 9d3d 698a debb 487e 34bd 10c3 8e3d
00000120: dbc9 f33c 9f35 5ebd 2114 543e 0c27 20bb
00000130: 5976 6a3e d6af 573e c786 fd3d 9add 07be
00000140: 6e9a 87bd fd5e 8ebd f971 f6bd af3a 76be
00000150: 640a 94be 85ac 163e 6c02 bd3d 836f 17bc
00000160: 8368 45be fad7 94be 4c39 713d 08f6 453e
00000170: 4c81 433e 7e7b 3fbe d03e 31be a569 4b3c
00000180: 48e2 443e 5f8f 08be 6999 373e 3730 243e
00000190: a2df 31be 5ee0 943d 3aed 2fbd 25e0 233e
000001a0: f850 ed3c 5cef 3ebe 9522 90bd fe1d 293e
000001b0: c9b4 573e 0f20 a73c f4de 79be b7d0 1cbe
000001c0: 9187 d43d c073 7bbc ba33 a3bb fb23 cbbc
000001d0: f1af b93d be69 c93d 0850 1b3d 135b b83b
000001e0: 48ed 2abd b312 89bd f8f0 febd 3d28 f13d
000001f0: 0437 6cbd a8e6 0cbe 84cf 15bd bd04 13bd
00000200: 963a 51bd d04d 12be 61c0 223c 300a eebc
00000210: a6f0 cbbb f184 53be f923 24be 36dc 10be
00000220: 77c6 1b3e e820 533c 0f5f f1bd faf8 ff3c
00000230: 9c97 673d 228c 4f3e af9a e03d 4639 a0bc
00000240: ad50 1cbd ba98 c53d f4d4 433e 2182 4a3e
00000250: e886 873d ff92 a03c
-0.20683895 -0.18121871 -0.012715634 -0.038324445 -0.074115805 0.051717587 -0.13711153 0.09410791
0.06501984 0.107317135 0.10124325 0.13057417 0.081043854 -0.075546764 -0.1538529 -0.08317353
0.037585724 0.07773398 0.06551862 0.15267798 0.16799496 0.039069284 -0.03243716 0.19093163
0.074847504 0.23287575 0.17867693 0.13039742 0.123532824 -0.026175767 0.005578929 0.14374113
0.031026194 0.1344666 0.05004467 -0.13091846 -0.06347546 -0.109098196 -0.10205368 0.049130347
-0.14902009 -0.079802655 -0.13337773 -0.16692041 -0.03961163 -0.11445071 -0.07167943 0.028815826
-0.120353244 0.07428482 -0.12259325 0.0099653825 0.11920688 0.03463273 -0.11114353 -0.15886608
-0.17446277 -0.19197263 -0.12449314 0.18532498 0.015705884 -0.19412972 -0.06314831 -0.1886711
-0.02086956 -0.12756628 -0.088106886 0.17869654 0.0769788 -0.006791402 -0.044065744 0.06970799
0.029759338 -0.054250356 0.20710804 -0.0024437336 0.22896709 0.2106317 0.12379222 -0.13268128
-0.06621252 -0.06951711 -0.12033457 -0.24045824 -0.28914177 0.14714248 0.092289776 -0.009242895
-0.1927815 -0.29071027 0.058892533 0.19332135 0.19092292 -0.18699452 -0.17309117 0.012415324
0.19226944 -0.13335942 0.17929615 0.16034018 -0.17370465 0.07269357 -0.042950846 0.16003473
0.028969273 -0.18645996 -0.07037846 0.16515347 0.21065058 0.020401029 -0.24401456 -0.15313993
0.1037742 -0.015347421 -0.0049805315 -0.02479743 0.09066761 0.09834622 0.03791812 0.0056260913
-0.041730195 -0.0669302 -0.12448305 0.11775253 -0.057669654 -0.13759863 -0.036574855 -0.03589319
-0.051081263 -0.14287496 0.009933562 -0.029057592 -0.006223756 -0.20656182 -0.16029347 -0.14146504
0.15212427 0.012886263 -0.11785709 0.031246651 0.05654107 0.202683 0.109670036 -0.01955856
-0.038162876 0.09648271 0.19124204 0.19776203 0.06617528 0.019601343

sequential_5/conv2d_11/Conv2D i1 [16, 5, 5, 6]
00000000: e018 643c c125 bfba 33e9 f524 bfd5 3eee
00000010: bd27 d511 54d9 2fed c4da 5029 1926 1aca
00000020: 2939 d32e 1c97 5715 c32a c684 393c dd45
00000030: f881 453d f320 31a8 7f35 eced f5ef 3a0f
00000040: e4dc c832 d3ff e617 0c18 a9de e0d1 21da
00000050: 10db e6d1 f900 21cb 2bdd 1207 fb11 211f
00000060: ffff c72d 37e5 fb2d d520 190a d639 8f16
00000070: 28cc 2c2c ba0a 07c7 e7e3 ecc5 0a2a fdf7
00000080: 9bea db11 1024 a595 1638 010b f18a 1932
00000090: 2f02 869a ed29 f615 0a40 0d22 e52a 25d5
000000a0: 7beb 1ffb e6f6 54df 12f5 be2f 0627 00fe
000000b0: 9851 ca16 e4a7 3833 0627 e8e9 5aaf 74aa
000000c0: 15e9 3fc9 62ad 1ddf e73c 1eee 02da b231
000000d0: de0c e2b9 167b 8144 12cb 6fff 240a 03fb
000000e0: 3cc8 59db d3ea d1a8 45a9 01eb a5f0 ddec
000000f0: 00d4 1325 8d18 24f5 412a be35 f5f4 df26
-32 24 100 60 -63 37 -65 -70
51 -23 -11 36 -65 -43 62 -18
-67 39 -43 17 84 -39 47 -19
-60 -38 80 41 25 38 26 -54
41 57 -45 46 28 -105 87 21
-61 42 -58 -124 57 60 -35 69
-8 -127 69 61 -13 32 49 -88
127 53 -20 -19 -11 -17 58 15
-28 -36 -56 50 -45 -1 -26 23
12 24 -87 -34 -32 -47 33 -38
16 -37 -26 -47 -7 0 33 -53
43 -35 18 7 -5 17 33 31
-1 -1 -57 45 55 -27 -5 45
-43 32 25 10 -42 57 -113 22
40 -52 44 44 -70 10 7 -57
-25 -29 -20 -59 10 42 -3 -9
-101 -22 -37 17 16 36 -91 -107
22 56 1 11 -15 -118 25 50
47 2 -122 -102 -19 41 -10 21
10 64 13 34 -27 42 37 -43
123 -21 31 -5 -26 -10 84 -33
18 -11 -66 47 6 39 0 -2
-104 81 -54 22 -28 -89 56 51
6 39 -24 -23 90 -81 116 -86
21 -23 63 -55 98 -83 29 -33
-25 60 30 -18 2 -38 -78 49
-34 12 -30 -71 22 123 -127 68
18 -53 111 -1 36 10 3 -5
60 -56 89 -37 -45 -22 -47 -88
69 -87 1 -21 -91 -16 -35 -20
0 -44 19 37 -115 24 36 -11
65 42 -66 53 -11 -12 -33 38

sequential_5/dense_15/MatMul i1 [120, 400] scale=0.0041895523 zero_point=0
00000000: edf9 f10a e7e3 0dff edf4 eeea f6f1 0607
00000010: 0eef effc 0dfa f80f fae7 fe0d f3fb 0afd
00000020: 0ff1 ff04 f004 16f3 1611 0d16 fde8 0ff8
00000030: f4f0 e7e7 f413 08e9 0a09 f8ef 04fd 08f9
00000040: 04f4 fb0b f0fe 09f0 030d 08ff e8f7 f2f8
00000050: 0906 13fa fb12 0b09 0701 ff05 07ea 01f9
00000060: 0efe 0207 f70e f5fd 1813 f8ed fcf1 150e
00000070: f6e5 f4f3 f9e7 f0e0 0ae8 fc07 fae7 0213
00000080: e70c f2f8 ed04 12f2 f4f5 0c02 0115 01f5
00000090: 13fa e0f8 1511 fde3 f516 f704 e812 f80a
000000a0: f4ec f0ee e510 1500 f0e6 0af1 0df5 13f5
000000b0: 01e3 ed0a ed11 05e6 f604 09e4 0607 fe04
000000c0: ebf3 f9fa 0bf8 eaec f50a f609 eef6 01f6
000000d0: f3e9 fd0e fd02 eceb f1f1 fdf4 0d10 fd03
000000e0: f005 fff1 1605 0a08 f90d ef0e fa02 03f4
000000f0: f805 e90f f507 fb0e 12fe e50c 06e6 eb11
-0.0796015 -0.029326865 -0.062843286 0.041895524 -0.10473881 -0.12149701 0.05446418 -0.0041895523
-0.0796015 -0.050274625 -0.07541194 -0.09217015 -0.041895524 -0.062843286 0.025137313 0.029326865
0.05865373 -0.07122239 -0.07122239 -0.01675821 0.05446418 -0.025137313 -0.03351642 0.062843286
-0.025137313 -0.10473881 -0.008379105 0.05446418 -0.05446418 -0.020947762 0.041895524 -0.012568656
0.062843286 -0.062843286 -0.0041895523 0.01675821 -0.06703284 0.01675821 0.09217015 -0.05446418
0.09217015 0.07122239 0.05446418 0.09217015 -0.012568656 -0.10054925 0.062843286 -0.03351642
-0.050274625 -0.06703284 -0.10473881 -0.10473881 -0.050274625 0.0796015 0.03351642 -0.0963597
0.041895524 0.03770597 -0.03351642 -0.07122239 0.01675821 -0.012568656 0.03351642 -0.029326865
0.01675821 -0.050274625 -0.020947762 0.046085075 -0.06703284 -0.008379105 0.03770597 -0.06703284
0.012568656 0.05446418 0.03351642 -0.0041895523 -0.10054925 -0.03770597 -0.05865373 -0.03351642
0.03770597 0.025137313 0.0796015 -0.025137313 -0.020947762 0.07541194 0.046085075 0.03770597
0.029326865 0.0041895523 -0.0041895523 0.020947762 0.029326865 -0.09217015 0.0041895523 -0.029326865
0.05865373 -0.008379105 0.008379105 0.029326865 -0.03770597 0.05865373 -0.046085075 -0.012568656
0.10054925 0.0796015 -0.03351642 -0.0796015 -0.01675821 -0.062843286 0.0879806 0.05865373
-0.041895524 -0.11311791 -0.050274625 -0.05446418 -0.029326865 -0.10473881 -0.06703284 -0.13406567
0.041895524 -0.10054925 -0.01675821 0.029326865 -0.025137313 -0.10473881 0.008379105 0.0796015
-0.10473881 0.050274625 -0.05865373 -0.03351642 -0.0796015 0.01675821 0.07541194 -0.05865373
-0.050274625 -0.046085075 0.050274625 0.008379105 0.0041895523 0.0879806 0.0041895523 -0.046085075
0.0796015 -0.025137313 -0.13406567 -0.03351642 0.0879806 0.07122239 -0.012568656 -0.12149701
-0.046085075 0.09217015 -0.03770597 0.01675821 -0.10054925 0.07541194 -0.03351642 0.041895524
-0.050274625 -0.08379105 -0.06703284 -0.07541194 -0.11311791 0.06703284 0.0879806 0.0
-0.06703284 -0.10892836 0.041895524 -0.062843286 0.05446418 -0.046085075 0.0796015 -0.046085075
0.0041895523 -0.12149701 -0.0796015 0.041895524 -0.0796015 0.07122239 0.020947762 -0.10892836
-0.041895524 0.01675821 0.03770597 -0.11730746 0.025137313 0.029326865 -0.008379105 0.01675821
-0.0879806 -0.05446418 -0.029326865 -0.025137313 0.046085075 -0.03351642 -0.09217015 -0.08379105
-0.046085075 0.041895524 -0.041895524 0.03770597 -0.07541194 -0.041895524 0.0041895523 -0.041895524
-0.05446418 -0.0963597 -0.012568656 0.05865373 -0.012568656 0.008379105 -0.08379105 -0.0879806
-0.062843286 -0.062843286 -0.012568656 -0.050274625 0.05446418 0.06703284 -0.012568656 0.012568656
-0.06703284 0.020947762 -0.0041895523 -0.062843286 0.09217015 0.020947762 0.041895524 0.03351642
-0.029326865 0.05446418 -0.07122239 0.05865373 -0.025137313 0.008379105 0.012568656 -0.050274625
-0.03351642 0.020947762 -0.0963597 0.062843286 -0.046085075 0.029326865 -0.020947762 0.05865373
0.07541194 -0.008379105 -0.11311791 0.050274625 0.025137313 -0.10892836 -0.0879806 0.07122239

sequential_5/dense_16/MatMul i1 [84, 120] scale=0.004584766 zero_point=0
00000000: 1bf1 f113 ed2d e626 01f5 2436 d40d 2215
00000010: cf12 e2e3 3ef9 25f9 dabf 05e2 1913 06dd
00000020: 2211 f9f0 edea 02ee f1c1 121d 11de bfe5
00000030: f039 1fe0 c30f 0013 e905 1a04 3820 e3d7
00000040: 331e 10de d422 0bd7 0c03 1218 120a 2b6b
00000050: 12f0 deff 16d1 c5db fcd6 e0d9 de16 c6ff
00000060: bdd7 faea 2129 e91b 1c00 2e43 0dd7 e419
00000070: bc1a efe4 eee8 fcc6 05f3 e224 19e1 0f18
00000080: f606 ffeb 37e4 dd26 3cf2 0516 0ac4 cb01
00000090: fe1c 1817 f30c ca06 e422 0c06 2821 110a
000000a0: 08e0 2716 e9e1 15cd f3e9 e313 39ff 4912
000000b0: 1427 ed1d e3f7 ff2c e700 e5f7 2cdc 0d0f
000000c0: 2b24 f527 0c0a b7cf e3e2 de07 1627 021a
000000d0: 0815 1313 40fc 102a 1e09 e713 fff3 0a27
000000e0: 09e1 d2cb e32f e131 0d0c f5ee fa38 dd03
000000f0: f205 0c15 1cd1 f6d0 0ef4 d8eb 19e4 dcfb
0.123788685 -0.06877149 -0.06877149 0.08711056 -0.08711056 0.20631447 -0.11920392 0.17422111
0.004584766 -0.050432425 0.16505158 0.24757737 -0.2017297 0.05960196 0.15588205 0.09628008
-0.22465353 0.08252579 -0.13754298 -0.13295822 0.2842555 -0.03209336 0.16963634 -0.03209336
-0.17422111 -0.29800978 0.02292383 -0.13754298 0.11461915 0.08711056 0.027508596 -0.1604668
0.15588205 0.07794102 -0.03209336 -0.073356256 -0.08711056 -0.10086485 0.009169532 -0.08252579
-0.06877149 -0.28884026 0.08252579 0.13295822 0.07794102 -0.15588205 -0.29800978 -0.123788685
-0.073356256 0.26133165 0.14212775 -0.14671251 -0.27967072 0.06877149 0.0 0.08711056
-0.10544962 0.02292383 0.11920392 0.018339064 0.2567469 0.14671251 -0.13295822 -0.1879754
0.23382306 0.13754298 0.073356256 -0.15588205 -0.2017297 0.15588205 0.050432425 -0.1879754
0.055017192 0.013754298 0.08252579 0.110034384 0.08252579 0.04584766 0.19714494 0.49056995
0.08252579 -0.073356256 -0.15588205 -0.004584766 0.10086485 -0.21548401 -0.2705012 -0.16963634
-0.018339064 -0.19256017 -0.14671251 -0.17880587 -0.15588205 0.10086485 -0.26591644 -0.004584766
-0.30717933 -0.1879754 -0.027508596 -0.10086485 0.15129727 0.1879754 -0.10544962 0.123788685
0.12837344 0.0 0.21089923 0.30717933 0.05960196 -0.1879754 -0.12837344 0.11461915
-0.3117641 0.11920392 -0.07794102 -0.12837344 -0.08252579 -0.110034384 -0.018339064 -0.26591644
0.02292383 -0.05960196 -0.13754298 0.16505158 0.11461915 -0.14212775 0.06877149 0.110034384
-0.04584766 0.027508596 -0.004584766 -0.09628008 0.25216213 -0.12837344 -0.1604668 0.17422111
0.27508596 -0.06418672 0.02292383 0.10086485 0.04584766 -0.27508596 -0.2429926 0.004584766
-0.009169532 0.12837344 0.110034384 0.10544962 -0.05960196 0.055017192 -0.24757737 0.027508596
-0.12837344 0.15588205 0.055017192 0.027508596 0.18339065 0.15129727 0.07794102 0.04584766
0.036678128 -0.14671251 0.17880587 0.10086485 -0.10544962 -0.14212775 0.09628008 -0.23382306
-0.05960196 -0.10544962 -0.13295822 0.08711056 0.26133165 -0.004584766 0.33468792 0.08252579
0.09169532 0.17880587 -0.08711056 0.13295822 -0.13295822 -0.041262895 -0.004584766 0.2017297
-0.11461915 0.0 -0.123788685 -0.041262895 0.2017297 -0.16505158 0.05960196 0.06877149
0.19714494 0.16505158 -0.050432425 0.17880587 0.055017192 0.04584766 -0.33468792 -0.22465353
-0.13295822 -0.13754298 -0.15588205 0.03209336 0.10086485 0.17880587 0.009169532 0.11920392
0.036678128 0.09628008 0.08711056 0.08711056 0.29342502 -0.018339064 0.073356256 0.19256017
0.13754298 0.041262895 -0.11461915 0.08711056 -0.004584766 -0.05960196 0.04584766 0.17880587
0.041262895 -0.14212775 -0.21089923 -0.2429926 -0.13295822 0.21548401 -0.14212775 0.22465353
0.05960196 0.055017192 -0.050432425 -0.08252579 -0.027508596 0.2567469 -0.1604668 0.013754298
-0.06418672 0.02292383 0.055017192 0.09628008 0.12837344 -0.21548401 -0.04584766 -0.22006877
0.06418672 -0.055017192 -0.18339065 -0.09628008 0.11461915 -0.12837344 -0.16505158 -0.02292383
